results/wheat_rigorous/models/residual_cnn.pth (torch, 326203 bytes, 52 tensors)

conv_in.weight f4 [32, 1, 7]
00000000: 8972 f53d 52cc dc3d 1e63 a03d 1936 923e
00000010: d504 c93b 733a da3d b7a3 d6bd 7858 8c3e
00000020: e70f 833e 1ce2 1bbe c563 a73d 2bb1 bebd
00000030: a474 a73d 0fd2 aabd 8811 853e 479a 143b
00000040: 29f7 9b3e 5ae6 493d 422b 4ebe 969a 433d
00000050: c086 69be 89e2 b5bd f8b6 0abe 2165 7c3e
00000060: b086 08be 83a2 0abd f857 2ebe 8cd9 89be
00000070: 3b1c 44bd a22b d6be f3e2 a93e 8eb4 94be
00000080: 7cd0 a63e 7edc a93d 5430 11be 1e61 eb3d
00000090: d373 1d3d 63e7 153e ce75 fa3d 98ef e03c
000000a0: 2dc3 253e e91f 7cbc b524 22bc 3e88 b23d
000000b0: 4d5a 56bd 1d4f 52be eeeb e63d 67ee 403e
000000c0: 1ebc af3e 5bd3 75be 17e4 b6be 88dd f8bd
000000d0: 8541 7fbe d99f b03e cc9f 213e e9bf 573e
000000e0: 0c5e 263e 07d5 fa3c 836a 9d3e 8526 90be
000000f0: 3548 9ebc c162 a2be e112 5b3d f36f 2bbe
00000100: c850 fd3d 7a51 a7bc 93dd cd3e 1608 09be
00000110: bd07 16be 4466 52be 462a c23e 6e6f 3b3e
00000120: adbe d43e 9fd8 80be f8db adbe 6094 90be
00000130: c63c 84be ff1f 5a3e baea 263e ba24 9d3e
00000140: 8b65 62be 1364 99be ff83 1c3e 902b 44be
00000150: 5da9 a13e fec8 76bd 331b 3e3e 97aa a9be
00000160: 57ac 62be dfe7 da3d 9a70 dc3d 43ff d73a
00000170: 621f 873e 3bf6 733e 5b66 37be 8949 25be
00000180: fc3f ac3e 41b5 82bd e95f 2abe 6aa1 8dbe
00000190: bae6 cfbc 0357 f93d 738e 60bc 22a3 7dbe
000001a0: bd83 56bd afa2 4cbe 666e 88be 15de 2cbe
000001b0: e28b 77be 2dd4 24be 2ba8 c43e d398 ca3d
000001c0: 1d58 043d eac8 95be ebf1 4abe 3f68 09be
000001d0: 7001 b33c 769a 3abe b2da b9bd 70b5 39be
000001e0: 937d 503d 7b69 a0bb 90da a03d 7914 bdbd
000001f0: 3c95 78be ed5d 7ebe 554a 27be 9c21 a0be
00000200: 9f25 ab3e dc6d 1abd 578a bb3e 813b 173e
00000210: d93c a4be 745c 293e 6835 02be b149 2fbe
00000220: 3e94 94be 03b4 22be 7ac8 073d b4e7 3bbd
00000230: 47fe b83d 042f b8be 69e5 713e 016a 96be
00000240: 17f1 3bbd c2a6 0d3e 02c1 963e f47b ae3e
00000250: dcec bb3e 737e 93be ddb4 b73d 2a87 39be
00000260: 805b 8fbd f8f9 a0be f36b 9a3e aba6 98be
00000270: 06e4 953d 493e ba3c 632e 7e3d 7c0c 82bd
00000280: fc91 c43e 36bb 543d a885 b23c 701e b2be
00000290: ffac 193e 3ed6 10bd 9ac9 d8bd 6f50 e13e
000002a0: 6836 633d 8c28 2abe 389d eebd d817 523d
000002b0: bd35 363e 7bce 07be 324a b1be 109b 40be
000002c0: 9428 a3be dae5 f23d ab0f 993e 6fba a8be
000002d0: 6c7b 053e 35dc 813e d529 9c3d abee 8fbd
000002e0: 712c 383e 6cac 1a3e f596 263e 9d61 183d
000002f0: a860 2dbb 9683 da3d 4910 913b add2 68bc
00000300: 0748 263e 70f3 653e 5769 7c3d 2671 c23c
00000310: e016 043d 06a6 d33c 319c 0a3e 798d 0b3e
00000320: d70e b5be f859 11be 1682 a63e b2a8 083e
00000330: 306d 6dbc 780d 46be 007b 63be 5342 09be
00000340: 516f 22be a346 c93c 2c15 a33e 75ff 433e
00000350: b140 b0be 0787 88be f8b9 cfbd 857a a43e
00000360: 1e91 ca3c 77c0 25be 42e2 873d 02da ffbd
00000370: 4215 3fbe d231 5e3e 46e5 49be 1c2e efbd
0.119847365 0.107811585 0.07831405 0.28556898 0.006134609 0.106556796 -0.10480445 0.27411246
0.2559807 -0.15222973 0.081733264 -0.09311136 0.08176544 -0.08340847 0.25989938 0.0022674964
0.30462006 0.049291946 -0.20133689 0.047754847 -0.2280531 -0.08881099 -0.1354636 0.24647953
-0.13332629 -0.03384639 -0.17025745 -0.26923788 -0.047878485 -0.41830164 0.3318096 -0.29044002
0.32580936 0.08294009 -0.14178592 0.11493133 0.038440537 0.14639048 0.12229501 0.027457997
0.16187735 -0.015388467 -0.009896447 0.087173924 -0.05233221 -0.20537992 0.11275469 0.18840943
0.3432321 -0.24006407 -0.35720894 -0.12151629 -0.24927337 0.34496954 0.15783614 0.21069302
0.16246814 0.030619157 0.30745324 -0.28154388 -0.01932154 -0.31715968 0.0534848 -0.16741924
0.123689234 -0.020424593 0.4020811 -0.13381991 -0.1465139 -0.20546824 0.37922877 0.18304226
0.41551724 -0.2516527 -0.33956885 -0.282382 -0.25827616 0.21301268 0.16300479 0.30692083
-0.22109048 -0.29959163 0.15284728 -0.19157243 0.31574526 -0.060250275 0.18565063 -0.33137962
-0.22136055 0.10688757 0.107636645 0.0016479272 0.2639113 0.23824398 -0.1791014 -0.16141333
0.33642566 -0.06382228 -0.1663815 -0.27662212 -0.025378574 0.12174799 -0.013705838 -0.24769261
-0.05237173 -0.19983934 -0.26646727 -0.16881593 -0.24174455 -0.16096564 0.38409552 0.0989243
0.032310594 -0.29254848 -0.19818847 -0.13418673 0.021851271 -0.18222985 -0.09074916 -0.18135619
0.050901007 -0.0048953868 0.078541875 -0.092324205 -0.24275678 -0.24840517 -0.16336949 -0.31275642
0.3342714 -0.037702426 0.36628982 0.14768793 -0.32077673 0.16539174 -0.12715685 -0.17117955
-0.2901935 -0.15888982 0.033150174 -0.045875266 0.090328746 -0.3597337 0.2362267 -0.2937775
-0.045884218 0.13833144 0.29444128 0.34078944 0.36704147 -0.2880741 0.08970044 -0.18117967
-0.06999874 -0.3144071 0.30160484 -0.29814658 0.07318883 0.022734778 0.062055957 -0.063500375
0.38392627 0.05193635 0.021792248 -0.34788847 0.15007399 -0.035360567 -0.105853274 0.44006678
0.055471808 -0.1661703 -0.11651081 0.05129227 0.17793937 -0.1326236 -0.3462692 -0.18809152
-0.31866896 0.11860247 0.29894766 -0.32954738 0.13035363 0.25363317 0.07625166 -0.07027944
0.17985703 0.15104836 0.16268523 0.037202466 -0.0026455317 0.10669629 0.00442699 -0.014210385
0.16238414 0.22456145 0.061623897 0.023735594 0.032248378 0.025836002 0.13536145 0.13628186
-0.35362884 -0.14194477 0.32521123 0.13345602 -0.014491364 -0.19341075 -0.2221489 -0.13404207
-0.15862776 0.024569815 0.3185209 0.19140418 -0.34424356 -0.26665518 -0.101428926 0.32124725
0.0247274 -0.16186701 0.06634952 -0.124927536 -0.18660453 0.21698692 -0.19716367 -0.116787165

conv_in.bias f4 [32]
00000000: 3661 c1bb 9356 ee3a d91c 5b3a 96f8 653b
00000010: 614e 5ebb f0f9 9bb9 6ed7 81ba 1097 f9bb
00000020: 6ad8 943b a437 7b3b f24a d4ba 0653 c1ba
00000030: 2135 4f3b 1871 b03b 4814 2cbb e7dd 2f3a
00000040: db86 853b 2938 083b 8fea 7f3c 5475 a6ba
00000050: 160e 8e3b f990 073b c873 3cb9 9561 35bb
00000060: 9adf 99ba 2205 61ba 8c76 91ba f4c4 37ba
00000070: 06cf 083c d183 feb9 738d c7bb 3f1c a0ba
-0.005901481 0.001818376 0.00083584856 0.0035090796 -0.003392123 -0.00029750122 -0.0009906122 -0.007616885
0.0045424 0.0038332725 -0.0016196652 -0.0014749474 0.003161736 0.0053845756 -0.0026257206 0.0006708786
0.004074914 0.0020785427 0.015619888 -0.0012699761 0.0043351753 0.0020685776 -0.00017972209 -0.0027676572
-0.0011739612 -0.00085838337 -0.0011097952 -0.00070102443 0.0083501395 -0.00048544866 -0.00608986 -0.0012215449

bn_in.weight f4 [32]
00000000: 5dc2 373f 7ae6 373f 5f1d 723f 1a25 623f
00000010: e653 7d3f 030c 433f 16ff 753f 19a7 843f
00000020: 4432 5f3f 6715 7a3f 5ea4 913f dc36 7f3f
00000030: 9ece 6a3f a8a5 313f ba47 513f 53ad 723f
00000040: 448d 5e3f ebfa 693f 1826 6d3f 9815 5f3f
00000050: 18ec 663f d9e8 8e3f 2673 783f 1bd1 803f
00000060: d00f 5b3f bb0b 943f ed6e 493f e4b4 5c3f
00000070: 30a5 483f 16cd 523f 3064 6f3f b415 503f
0.7178095 0.71836054 0.94576067 0.8833786 0.98956144 0.76190203 0.96092355 1.0363494
0.87186074 0.9768891 1.1378286 0.99693084 0.9172152 0.69393396 0.8175007 0.9479572
0.86934304 0.91398495 0.9263625 0.87142324 0.90204 1.116481 0.970507 1.0063814
0.85571 1.156608 0.78684884 0.8621352 0.78377056 0.82344186 0.9351225 0.81283116

bn_in.bias f4 [32]
00000000: 3dd3 153d fbc1 a73d 6ac3 733c eb5d 99bd
00000010: 35dd 093e 9532 b7bd 59e7 e5bd 15a1 bebc
00000020: 2cce 4dbd 0006 593c aeb9 ecbd 8098 35bd
00000030: c0ab a13a 3aab 79bd a738 30bd 3d11 5e3d
00000040: 7dab 8cbd 67c9 1d3e d2e3 953e 6d29 52be
00000050: 25e9 9ebc 165d f93d 589f a7bb 3452 8f3d
00000060: eb3a 57bd e74c 663d 50a2 b63c 0e11 043d
00000070: 5e56 413d 609c 9ebd be2d 9d3c d392 76bd
0.036578406 0.08191296 0.014878133 -0.074886166 0.1346329 -0.08945195 -0.11225767 -0.02327017
-0.05024545 0.013246059 -0.11558853 -0.04433489 0.0012334511 -0.06095431 -0.043022778 0.05421566
-0.06868646 0.1540886 0.29275376 -0.20523615 -0.019398281 0.12175958 -0.005115431 0.06998101
-0.052546423 0.056225684 0.022294194 0.032242827 0.047201507 -0.0774467 0.01918685 -0.060198616

bn_in.running_mean f4 [32]
00000000: a569 103e 8bac b83d 44dd 6f3d 6c64 0ebe
00000010: 8501 2dbd d8c9 143e a11f e43d 9d02 91bd
00000020: 5e6d 4fbc 21f0 00bd c7ab 24bd aeea f13c
00000030: 7a10 e13c aa19 e53d 420f 27be 22cc 0abe
00000040: 58cf 4ebe adc5 1dbe d5df 9a3c 4a00 16be
00000050: bd1c 963c 8371 45bc b5f3 ef3d 34c9 243d
00000060: 6a3a f0bd 79d0 23bc b6a3 043e a09f 0d3e
00000070: 2a30 433d 5ba2 0dbe b6d7 f23c 70bd fdbd
0.141028 0.09017285 0.058560625 -0.13905495 -0.042237777 0.14530122 0.11138845 -0.070805766
-0.0126603525 -0.031479005 -0.040202882 0.02953085 0.027473677 0.11186536 -0.16314414 -0.13554433
-0.20196283 -0.15407439 0.01890556 -0.14648548 0.01832425 -0.012050989 0.11716405 0.040230945
-0.117298916 -0.009998434 0.12953076 0.13830423 0.047653355 -0.13831465 0.029643875 -0.12389648

bn_in.running_var f4 [32]
00000000: 8e09 6c3c b981 b43b 206c 333b 151f 5c3c
00000010: 030e 8a3a 3d29 673c 5bc4 0b3c 8919 7b3b
00000020: 031e e839 09c2 663a 42d6 3a3b c75e 923a
00000030: 96f0 ec39 c5c1 f63b dcf3 8b3c 2c6e 573c
00000040: 1cca e63c 625f 833c d54b af38 3f02 693c
00000050: 5320 c339 0375 9b3a d7e6 133c 45a8 ac3a
00000060: a0dd 113c a8d7 013a 1845 3a3c aae0 513c
00000070: 1c74 813a e9e0 523c 47d7 563a c607 233c
0.014406575 0.005508628 0.002737768 0.013435145 0.001053274 0.014108953 0.0085307015 0.003831478
0.0004427285 0.0008802717 0.0028509055 0.0011167162 0.00045192678 0.0075304233 0.017084055 0.013148826
0.028172545 0.016036693 8.358775e-05 0.014221727 0.00037217382 0.0011860434 0.0090272045 0.0013172707
0.008902937 0.0004953095 0.011369012 0.012809912 0.0009876522 0.012871006 0.0008195531 0.009950584

res1.conv1.weight f4 [32, 32, 5]
00000000: 0d6e ef3a 84fa 47bd c856 c03c 2883 2bbc
00000010: 74b6 51bc c104 b2bd a6c0 df3c b3a8 43bd
00000020: f816 10bc 2ac4 3b3c 16f2 cebd 0f72 54ba
00000030: 6d94 153d c5bb 70bc ba72 933c 00b1 d7bd
00000040: 1f8e c2bd 1513 05be ecc8 93bd fa1b 97bd
00000050: f2ae 693d c05a b53a 4914 04bc 20de bfbd
00000060: 1851 c4bd d8b5 86bd 00ad 34bc f1f5 40bd
00000070: 05a7 8dbd 087a a2bd 7bdd acbd 247d 873c
00000080: 1b90 c73a 7a20 83bd 88cb 33bd d82c b03d
00000090: f91b 23bd 333a 95bd 3724 933c 0ad6 fcbd
000000a0: 0a2c 39be aeaa c6bd f14c 263c 01f8 103d
000000b0: b970 0a3e cc2c d8bd 65b3 edbd 0829 c6bd
000000c0: d8ae 0cbd 04d0 d63d e8f7 8dbe a9e8 f3bd
000000d0: 9f6f ceba 5fe1 963d b210 5b3e 3af7 c4bd
000000e0: 5268 a9bd eaba 7c3d 97a4 fb3d a65c 573d
000000f0: d1fc d7bd ad37 26bd bee2 b1bc 4035 0f3d
00000100: ef86 a5bc ff1e 2dbd 4b7d 2f3d 9170 a33c
00000110: bf83 b3bd 6787 d9bd 9745 32bd 7a6b d2bd
00000120: c943 12be 3e98 28be db2b c1bd 8b38 263d
00000130: fb9b 3bbd 6b9b 90bd 647e 43bd 8c18 45be
00000140: a2e3 ebbc 4375 45bd 95f6 26be e4c0 33be
00000150: 2430 f2bd 4cd9 42bd 8eac c1bd 57f8 14be
00000160: 8548 09be 90b5 c1bd 91b0 513e d9a7 c63c
00000170: 7bb0 e8bd b9eb 9a3b 238d e73d 4ffc 8bbc
00000180: be30 9bbd 023d 17be ea8d 4ebe a419 6ebd
00000190: f4fc 823d 192b 3ebd 970e 6dbd cfa4 c23d
000001a0: cd5c a13c 007f 8bbe 394c 43be 6a1b 79bc
000001b0: 33e3 623d 9a45 bb3d 9cfc 56bc f574 cabd
000001c0: 5f66 f6bd 6597 2fbd fbc2 063d 33ff e53b
000001d0: 403e c6bd 94dc d7bc 5957 bbbc 0ae1 963c
000001e0: 7270 15bd 432c e3bd dd45 f9bd f41a 28be
000001f0: 5cc2 efbc 6e4a 033e 6904 1f3d f60a 913c
00000200: b96b 1cbd a42a 3a3d b5f0 6fbd 7248 d8bc
00000210: b6c9 8dba b660 9fbd 8c14 8bbd c0d6 00bd
00000220: 2561 023d b539 4fbc d97b 22bd 5dab adbd
00000230: a059 ccbd d530 38bd 2a9d 11bd 6471 a0bd
00000240: a165 653c 5e22 0dbc 3c64 d4bd 3b47 29be
00000250: 0ed4 2dbe 9c4e dbbd 5654 08be 659f 04be
00000260: c0ff 81bd 2c0a 983c 3abc 92bc 7b17 12bd
00000270: dad2 13bc 549f dfbd 8e56 03be 9579 0cbe
00000280: 1e09 b9bd 74f7 0cbd 1bb8 92bd 6fb8 d9bd
00000290: c939 ecbd 99b1 e0bd 6db2 ecbd d9fa 4bbd
000002a0: 4b15 56bd baf6 d3bd 6dfb 41bd 7677 adbd
000002b0: 02bd 00bd 92f7 353d 9c4f 5f3d 221a a0bb
000002c0: a5b4 1abd 1e51 8ebb caa5 85bd 38f3 5a3d
000002d0: 2e8d 3abe c4cd a4bd cd98 ab3c 39b9 863d
000002e0: ca19 7ebd 541d d7bb 6dd8 89bc 4ddf 9a3b
000002f0: 1449 30bc 6d4a a6bd 12f6 4abd 1242 86bb
00000300: 8de0 e7bc f406 ccbd 4064 46bd f190 5dbe
00000310: b23d adbd aa15 953d d63f 833d 50cf 54bc
00000320: 8008 4d3d 251f 933d 92f5 84bd 84ad 87bd
00000330: b8d3 953d 71df 5d3d 760a afbc 101f e1bd
00000340: c24f 423d d692 1c3d a257 463d 8851 30bb
00000350: 47b3 b93c 2ec7 9f3d 00ab 573e e04a 623d
00000360: 2df5 343d 5e32 21bc fd58 0b3c c03b 023e
00000370: 6d34 b3bd ceea fabd c100 9fbd cd7c 26bd
00000380: 1adf 6539 5cf9 8abd a96c 4ebd 10e7 02bd
00000390: 2581 a4bd a0ac d2bd 550f 51bc d4ee 9dbc
000003a0: 2740 4f3d 863b 723d 5d35 143c ba09 a0bd
000003b0: c715 1c3c 9cf8 4c3d 9b6d 09ba 98c7 1abd
000003c0: 3ae5 59bc 8aaf 6f3d 8364 c0bc 5d03 42bd
000003d0: 05e5 22bd 2b9a 18bb ced0 1f3d d453 883d
000003e0: 0514 c33d ad9a b53d eb7a d3bd 35f0 dabd
000003f0: 53d8 543c 124c 22bc f4cc 01be c306 a5bd
0.0018267051 -0.048822895 0.02347888 -0.010468282 -0.012799848 -0.08692313 0.027313542 -0.047768306
-0.008794539 0.011460343 -0.10104768 -0.0008104154 0.036518503 -0.014693205 0.017999042 -0.10531807
-0.09499764 -0.1299556 -0.07216057 -0.07378383 0.057051606 0.001383625 -0.008061477 -0.09368539
-0.0958578 -0.06577653 -0.011027575 -0.047109548 -0.06916622 -0.07933432 -0.084406815 0.016539164
0.0015225442 -0.06402679 -0.043895274 0.08602303 -0.0398216 -0.07286491 0.017961605 -0.12345512
-0.18083206 -0.09700523 0.01015018 0.035392765 0.13519563 -0.10555419 -0.116064824 -0.09675795
-0.03434643 0.104888946 -0.277282 -0.11909611 -0.0015749818 0.07367205 0.21393088 -0.09617467
-0.08271851 0.061701693 0.122872524 0.05257859 -0.10546268 -0.04058044 -0.021714564 0.034962893
-0.020205943 -0.04226589 0.042844098 0.019951137 -0.08765363 -0.10621529 -0.043523397 -0.10274406
-0.1428367 -0.16464326 -0.09432193 0.040581267 -0.04580305 -0.070608936 -0.047727957 -0.19247645
-0.028795067 -0.048207533 -0.16305001 -0.1755405 -0.11825588 -0.04757051 -0.0945674 -0.14547859
-0.1340657 -0.094584584 0.20477511 0.024249958 -0.11361786 0.0047278074 0.113062166 -0.017088084
-0.07577656 -0.14769366 -0.20171323 -0.05812992 0.06395903 -0.04642782 -0.057875242 0.09504091
0.019697571 -0.2724533 -0.19072045 -0.01520429 0.055392455 0.09144135 -0.01312175 -0.09885589
-0.120312445 -0.04286899 0.03290079 0.0070189475 -0.09679842 -0.026350297 -0.022868799 0.018417854
-0.03648419 -0.11092427 -0.121715285 -0.16416532 -0.029267482 0.12821361 0.038822565 0.017705422
-0.03818867 0.04545082 -0.058579165 -0.026401732 -0.0010817561 -0.07782118 -0.067910284 -0.0314548
0.031830925 -0.012648036 -0.03966889 -0.084799506 -0.09978032 -0.044968445 -0.035550274 -0.078341275
0.014001281 -0.008614151 -0.10370681 -0.16531079 -0.16975424 -0.10708353 -0.13313422 -0.12951429
-0.063476086 0.018559538 -0.017912019 -0.035666924 -0.009022439 -0.10919061 -0.12825987 -0.13718255
-0.09034942 -0.034415677 -0.071640216 -0.10630881 -0.11534459 -0.10971374 -0.115574695 -0.049799774
-0.0522664 -0.10349794 -0.04735892 -0.08470051 -0.031430252 0.044425555 0.05451928 -0.004885928
-0.037769932 -0.004343166 -0.065257624 0.053454608 -0.18217918 -0.08047059 0.020946885 0.06578297
-0.062036313 -0.0065647755 -0.016826833 0.0047263266 -0.010759611 -0.08119664 -0.049551077 -0.0040972317
-0.028305316 -0.09962264 -0.04843545 -0.21637322 -0.08459033 0.07279523 0.0640866 -0.01298888
0.050056934 0.07183675 -0.06492151 -0.06624892 0.07315773 0.05416817 -0.021367293 -0.10992253
0.047439344 0.03822597 0.048423417 -0.0026904065 0.022668494 0.078016624 0.21061325 0.055247188
0.04417913 -0.009838669 0.008505103 0.12718105 -0.08750234 -0.12251817 -0.07763816 -0.040646363
0.00021922254 -0.06785843 -0.050396595 -0.03195864 -0.08032445 -0.10286832 -0.012760003 -0.019278921
0.05059829 0.059138797 0.009045926 -0.07814355 0.0095266765 0.05004178 -0.0005242468 -0.037788004
-0.013299281 0.058517016 -0.023485428 -0.04736649 -0.03976919 -0.002328525 0.03901749 0.06656614
0.09525303 0.08867393 -0.10326179 -0.10690347 0.012991029 -0.009905832 -0.1267584 -0.0805793

res1.conv1.bias f4 [32]
00000000: baf7 c7b8 6d76 f2b8 1855 cfb9 13a5 d638
00000010: adbe b0b7 6437 2ab9 0d7d 68b8 7c31 ccb9
00000020: 32a2 91b9 aab9 a6b8 3658 5ab8 ee32 0738
00000030: c9cd f9b8 a22c ac37 4827 6438 524c 2db9
00000040: 5062 d2b5 0046 0cb9 75cc b6b9 a143 33b9
00000050: 3c13 dc38 a1ff 053a b9c2 0ab9 9d64 6139
00000060: d4c0 7b39 bced 5938 c84f 78b8 2a4a d8b8
00000070: 545e 5eb9 e4fc 95b9 dff1 1a39 7d9d e2b8
-9.535202e-05 -0.00011561518 -0.00039545516 0.00010235063 -2.1069625e-05 -0.00016233098 -5.5429573e-05 -0.0003894678
-0.000277774 -7.9500795e-05 -5.2057403e-05 3.223394e-05 -0.00011911576 2.0524782e-05 5.439602e-05 -0.00016526997
-1.5674832e-06 -0.00013377517 -0.00034866077 -0.00017095964 0.00010494 0.0005111639 -0.00013233245 0.00021495153
0.0002400906 5.195824e-05 -5.920211e-05 -0.00010313497 -0.0002120671 -0.00028607913 0.00014776688 -0.00010805854

res1.bn1.weight f4 [32]
00000000: bb63 653f 4c64 603f 2645 843f abe9 6d3f
00000010: 2b8e 553f 951e 4d3f 53f4 823f 13e2 7c3f
00000020: b3d1 823f 8190 843f d24b 3c3f 2212 6f3f
00000030: a299 783f f82b 573f 169a 783f 0290 4f3f
00000040: 18ef 163f 8339 753f 614b 7e3f a031 6a3f
00000050: cb8c 503f 04c2 623f e024 523f a624 5a3f
00000060: f779 693f 6ce8 593f ff9f 773f 07c9 6f3f
00000070: 2046 753f dda4 563f e4fb 423f 77ee 503f
0.896053 0.8765304 1.0333602 0.92934674 0.83420056 0.8012479 1.0230812 0.9878246
1.0220245 1.0356599 0.7355319 0.93387043 0.97109425 0.84051466 0.97110116 0.81079113
0.5895858 0.9579088 0.9933377 0.9148197 0.81464833 0.88577294 0.82087517 0.8521217
0.9120173 0.8512027 0.9672851 0.9366612 0.9581013 0.8384531 0.76165605 0.8161387

res1.bn1.bias f4 [32]
00000000: be7e 57bd 85a8 b1bd 4093 813d 862e 55bd
00000010: 69c8 84bc 6cab 85bd 06da 3d3d e981 4bbd
00000020: e021 a9bb 4e36 52be 66f7 4bbe c976 33be
00000030: 8238 e43d 4820 803d 7ab5 80bd daf0 48be
00000040: 2d5e 83be a35a ccbc d5bb 1e3d 8942 a33e
00000050: 89bd dfbd ae2b 073e a48d 90bd 5f78 3abe
00000060: d756 2ebd 1680 78bd eb5b 783c 59d5 afbe
00000070: 628d d2bd 0471 5fbd 9c36 7fbe 5529 d3bd
-0.052611105 -0.08674721 0.06326914 -0.05204632 -0.016208844 -0.06526837 0.0463505 -0.04968444
-0.005161509 -0.20528528 -0.19918594 -0.17525782 0.111435905 0.06256157 -0.06284614 -0.19623128
-0.25657788 -0.024945563 0.03875335 0.318867 -0.10924823 0.13200256 -0.07058266 -0.1820998
-0.042563286 -0.060669027 0.015158634 -0.3434246 -0.10280873 -0.05455114 -0.24923176 -0.10310618

res1.bn1.running_mean f4 [32]
00000000: 1e8c 08c0 2fc9 bbbf d51b 0ac0 6337 b63f
00000010: 0e0e b5bf 8509 f73f 8f29 90bf b837 7dbf
00000020: 29ce 9ebf 72cc ae3f d3f3 dabf cd88 b13f
00000030: d149 36c0 b03a e0bf 320c 953f 3de7 5c3f
00000040: 7812 3abf 8465 19c0 770f 8a3f 6464 33c0
00000050: 20f0 04c0 fdd7 16c0 713f 623f 5d5f 3840
00000060: 4d38 f1bf dfa0 debf ca88 6cbf 4d4e 3240
00000070: 9952 06bb 4880 89bf 4d6a 3740 ac6d f1be
-2.133552 -1.4670771 -2.1579487 1.4235653 -1.4144914 1.929978 -1.1262683 -0.98913145
-1.2406665 1.3656142 -1.7105659 1.3869873 -2.8482554 -1.751791 1.1644347 0.8629034
-0.7268443 -2.396821 1.078597 -2.8030024 -2.077156 -2.3569329 0.88378054 2.8808205
-1.8845307 -1.7392844 -0.92396224 2.786029 -0.002049601 -1.0742273 2.865863 -0.47153986

res1.bn1.running_var f4 [32]
00000000: e8ad 1640 a746 0d41 bbca 1041 f6f7 5840
00000010: e1be 243f 4aa6 b240 5996 d93f 4711 b43f
00000020: 93f9 ca3f 57a4 2740 1e6d 0840 3ce9 8e40
00000030: 851c 8f41 8ac0 4941 1137 7940 4dae 3940
00000040: 67f0 aa3f cabf cf40 05f5 b140 f3c4 8f41
00000050: bb35 5240 c23f 1641 7970 b73f c1ee af40
00000060: c6dc 4441 b20d 1841 6d93 3641 d923 2040
00000070: b354 7240 d6ed 1f40 69d9 dd3f f9de 2440
2.3543644 8.829749 9.049495 3.3901343 0.6435376 5.582799 1.6999007 1.4067773
1.5857414 2.6194055 2.13166 4.465971 17.888926 12.609507 3.893986 2.9012635
1.3354615 6.4921618 5.5611596 17.971167 3.2845294 9.390566 1.4331199 5.497895
12.3039 9.503344 11.410993 2.502188 3.7864196 2.4988914 1.7331973 2.5761092

res1.conv2.weight f4 [32, 32, 5]
00000000: a841 d2bd 33f7 923d 3506 5e3d 2094 10bc
00000010: e7a1 003e ee28 ca3d f5fc 163e 5191 c73d
00000020: db88 333d a9f6 f0bd 0321 aebd fdd1 72bc
00000030: 5c25 a33d f019 20bc fc4e 13bd 5d48 0dbd
00000040: 6777 23bd 1319 28bc 4c58 8bbd 3353 dbbd
00000050: c052 d63c 1fca 1abd 97f7 2c3d 2d78 8b3d
00000060: e431 b73d aa42 8abd 9aa9 c7bd 14f4 f3bd
00000070: ce49 793d 63ae 933d f731 bebd 0b0c a9bd
00000080: 9a01 33be cf69 a73c 8612 b43d 63c6 cfbd
00000090: da01 923d 984d b33d c327 d5bd e10e e3bd
000000a0: a93c 7e3e 2b4f 713e 96ec e73d 8dae d03c
000000b0: 1385 323d bf72 5d3e d57a 613d d90a 5a3d
000000c0: f244 1dbe 4a6f 1dbe 655d 803e 821c 5bbc
000000d0: 1b3c 9abd 6ea0 96bd 427d b6bc 4616 b43d
000000e0: d412 183c 3960 14be 9f21 25be 8fd5 23be
000000f0: 8a8a 60bd 0830 a2bd 8943 8dbd 7708 0a3d
00000100: f498 d0bc 2fcf 173d 309e 2abd 4a26 e3bd
00000110: 875b 8f3b 2242 733c a47f fdbc 531c 953c
00000120: c14c a0bc 6b11 45bd 0f7c 223c f252 efbd
00000130: 9c5b 41be 43ce 93bd 5c45 eabd d4c7 4abd
00000140: aa7e 503d a3d8 003e 8d54 d1bd 4f18 dcbd
00000150: 1fb7 d8bd 22f7 d83d fba2 833d cfa5 40bd
00000160: 2bfd 9fbc e688 243d 07ad 03be 1382 4cbe
00000170: d8cb 93bd 3a53 093d 342f 233d 4333 d43c
00000180: 460b c23c 516c 35bd 98a9 94bd e954 a0bd
00000190: 2618 303e d756 2e3d bbc6 eaba 698c 033d
000001a0: 0c0c 2abb 4366 a13d 8941 b73d 904f e3ba
000001b0: 1299 1fbd a6d7 0abd da8d 383d 3874 ffbc
000001c0: fd4a 08bd 3761 0ebe 5800 19be 1822 03be
000001d0: d352 9abd 21e2 e33c 0626 abbc 7e48 16bd
000001e0: 2441 09be 2a79 8dbc 3094 18bd c804 8cbd
000001f0: 8767 24bb e49b b7bc 1edf 663c 4beb 65bd
00000200: 0f21 3abe 03f8 843c 751f b93d 81ed 26bb
00000210: 4f3e 0ebc 5004 37bd 1b75 eabd aecf 9a3d
00000220: 697f 923d e024 0a3e 7f48 aa3d 8a92 333e
00000230: d3c1 1a3e dc8b 9ebc 7e3c 6b3d 73a5 02bd
00000240: dd06 21be 6d21 1e3e aae7 d3bc 7482 16be
00000250: ea97 20be b864 87bd 2501 843d 6b4d d73d
00000260: b97b 0a3d dd5e 06bd 127d 883b dea6 a73b
00000270: 48b2 433d 69d4 623d 5230 e1bd 4462 a7bc
00000280: 30a7 6a3c 9138 2d3d 3159 2e3e 9bca b53d
00000290: b001 013e cb4c 45bd 246c 8abd ca12 563d
000002a0: f996 9c3c 573a deba 629c 4a3d 4381 89bd
000002b0: a1de 05be 787a 52bd 0a86 76be 180f fa3d
000002c0: 372a 733d 6164 c6bd 57eb c4bd 53cc 3fbd
000002d0: 6f3f 533d 04e4 61bd 4542 f03d 6c48 eebc
000002e0: 6b9c ba3c 3be5 02bd b56f b0bd cdd5 17bd
000002f0: d250 993b c7db 983d a1d7 c2bb 6d67 12bd
00000300: 15c6 d93d 38ee 263e f735 2c3d 5901 083e
00000310: 7a76 cabc 0449 b8bc 98e1 84bd c3eb 9abd
00000320: bafc 0d3d 963e 1bb8 8e5f 11be bc93 a5bd
00000330: e058 053d 0036 d2bd 5f9e c9bd ff82 0dbd
00000340: 1b21 b6ba e775 383e fcb3 543d 928a f3bd
00000350: 92de d4bd 2e08 11bd 9e05 4b3e aeff 11bd
00000360: 8230 b6bc 858c 0abe 9c0b 91bd 5677 a6bd
00000370: a529 10bd d389 b7bb 50eb 013e eb41 983e
00000380: 63e9 8c3e e9b9 5e3b e24b 80bd 1a82 71bb
00000390: 7d08 c8bc 2828 083e 45f6 abbc a0df 23bd
000003a0: 913f 05be 62d8 3dbd edaa 0cbd f432 92bd
000003b0: 77d5 b2bc efa7 903d 1fbc d43d a903 243e
000003c0: 2677 853d cf82 95bc 95a4 27be 1bc5 1bbe
000003d0: 7cc7 d5bd d4b1 3c3d 4a59 1a3d ef09 313e
000003e0: 7b3f ac3e c60b d53e ac6f 3f3d 4e8b 84bd
000003f0: 3fc7 c6bd 2150 debd 78c0 07bd 75dd bdbd
-0.10266429 0.07176056 0.05420514 -0.008824378 0.12561761 0.09871088 0.14744933 0.09744514
0.043831687 -0.11765797 -0.0850239 -0.014820573 0.0796611 -0.009771809 -0.035963997 -0.03449284
-0.039908793 -0.010259884 -0.06803951 -0.10709228 0.026162505 -0.037790414 0.042228308 0.06810031
0.08945063 -0.067509964 -0.09749146 -0.119117886 0.0608614 0.07210996 -0.09286874 -0.0825425
-0.1748108 0.020436196 0.087925956 -0.10145261 0.071292594 0.08755034 -0.104079746 -0.11086822
0.24827828 0.23565356 0.11324422 0.025473857 0.04358394 0.21625803 0.055048782 0.053233
-0.15358332 -0.15374485 0.25071254 -0.013373496 -0.075309955 -0.07354818 -0.022276524 0.08793311
0.009281833 -0.14489831 -0.16126107 -0.15999435 -0.05481962 -0.079193175 -0.06897647 0.03369948
-0.025463559 0.03706282 -0.041654766 -0.110912874 0.0043749246 0.01484731 -0.030944653 0.018201983
-0.01956785 -0.048112314 0.009917273 -0.116857424 -0.18882602 -0.07217076 -0.114390105 -0.049506977
0.050902046 0.1258264 -0.10221205 -0.10746824 -0.105818026 0.10594012 0.064275704 -0.047033127
-0.0195299 0.04016962 -0.12858973 -0.19971494 -0.072166145 0.033526637 0.03983994 0.02590335
0.023687016 -0.04429275 -0.0725891 -0.07828695 0.17196712 0.042563286 -0.001791201 0.032116327
-0.0025947122 0.07880833 0.08948047 -0.0017342437 -0.03896434 -0.033897065 0.045057155 -0.031183347
-0.03327464 -0.13904272 -0.14941537 -0.12805974 -0.07535329 0.027817788 -0.020892154 -0.036690228
-0.13403755 -0.01726969 -0.037250698 -0.068368495 -0.0025086121 -0.022413202 0.014091281 -0.056132596
-0.18176673 0.016231542 0.09039203 -0.0025471153 -0.008681848 -0.044681847 -0.11448117 0.07559143
0.07153208 0.13490629 0.08314609 0.17536369 0.15113 -0.0193538 0.057430737 -0.031896066
-0.15725274 0.15442438 -0.025867302 -0.14698201 -0.1568295 -0.066110075 0.06445531 0.10512813
0.033809397 -0.032805312 0.0041653 0.0051163277 0.047777444 0.05537835 -0.109955445 -0.020432599
0.014322087 0.042290274 0.17026211 0.088765346 0.125983 -0.04816894 -0.067589074 0.052264012
0.019114958 -0.0016954642 0.049465545 -0.06714108 -0.13073207 -0.051386327 -0.2407457 0.1220991
0.05936643 -0.096871145 -0.096152 -0.046825718 0.051574167 -0.055149093 0.1173139 -0.029087268
0.022779664 -0.031956892 -0.086150564 -0.03706913 0.004678824 0.07463794 -0.005946115 -0.035743166
0.10633484 0.1630181 0.042043652 0.13281764 -0.024714697 -0.022495754 -0.06488341 -0.07564499
0.034664847 -3.7013167e-05 -0.14196607 -0.08084819 0.03255546 -0.10264206 -0.0984466 -0.034548756
-0.0013895364 0.18013726 0.05192946 -0.118916646 -0.103940144 -0.03540819 0.19826362 -0.035644226
-0.022239927 -0.13530166 -0.070822924 -0.0812823 -0.035195965 -0.0056011467 0.12687421 0.2973779
0.2752181 0.0033985323 -0.062644735 -0.0036851228 -0.02441811 0.13296568 -0.020991454 -0.040008187
-0.1301253 -0.046348937 -0.034342695 -0.07138625 -0.021830304 0.07063281 0.10387444 0.16017021
0.065168664 -0.018250851 -0.16371377 -0.15211909 -0.10438439 0.046068028 0.03768281 0.17288946
0.33642182 0.41610545 0.046737358 -0.06471883 -0.09705972 -0.10855127 -0.033142537 -0.09270755

res1.conv2.bias f4 [32]
00000000: 0875 7239 5513 c9b9 6ea6 52b8 b96e 8d39
00000010: a04e ba39 1cf8 5e39 f89c 2eb7 442b a5b8
00000020: 36fc 0f39 546d 8239 0b1a 33b9 ab83 61b8
00000030: 6d15 18b9 eb58 7438 486f 76b8 1aab 8339
00000040: 6fc7 21b9 6268 a238 5c95 27b9 ff5b bb38
00000050: 7e69 bd36 44cc 9fb9 2130 b2b9 5f49 90b9
00000060: 76bc 8839 5317 1e39 6593 03b8 da53 d2b8
00000070: ce64 7a39 79ec 0839 9226 8cb7 6327 9b39
0.00023122516 -0.0003835211 -5.02229e-05 0.0002697611 0.00035535265 0.00021263998 -1.0407755e-05 -7.875872e-05
0.00013731499 0.00024876988 -0.00017080472 -5.3766806e-05 -0.00014503831 5.8256945e-05 -5.875461e-05 0.00025113748
-0.00015428451 7.744205e-05 -0.00015982002 8.9339905e-05 5.64492e-06 -0.00030479033 -0.00033986664 -0.00027520486
0.00026080356 0.00015076743 -3.1370106e-05 -0.00010029199 0.0002387941 0.00013058064 -1.6707261e-05 0.0002959325

res1.bn2.weight f4 [32]
00000000: 9fe4 7c3f 15bf 843f e3e3 773f 9ec0 6b3f
00000010: 6042 713f d75d 743f 3b0f 763f c8b2 733f
00000020: f93b 433f 1f0b 573f f393 633f 492a 643f
00000030: c75e 403f d007 633f abf3 063f a480 6d3f
00000040: a483 2f3f 3c58 6d3f f688 673f b7b4 4d3f
00000050: 08b2 4c3f cef5 4f3f cfe3 653f 396b 6f3f
00000060: 3a1b 6f3f dfc2 8b3f 84a6 763f d677 673f
00000070: 5a07 873f 4bec 613f 1ed5 493f c033 683f
0.9878635 1.0370814 0.968321 0.92090786 0.94241905 0.9545569 0.9611699 0.95194674
0.76263386 0.84001344 0.8889763 0.8912702 0.7514462 0.88683796 0.5271556 0.92774415
0.6856024 0.9271276 0.9044336 0.80353874 0.79959154 0.81234443 0.89800733 0.93522984
0.9340092 1.0918845 0.9634783 0.9041723 1.0549119 0.8825118 0.78840816 0.90703964

res1.bn2.bias f4 [32]
00000000: a808 2abd 5f39 24be cdc5 22be d07d e03d
00000010: bb25 a4bd eef8 02bd 8ddc da3d fdcb b5bd
00000020: 0276 0dbe 7992 39be 5c90 47be d29b 8abd
00000030: a1f4 66be 9167 90be daf9 42be 1a0f 083e
00000040: e530 65be d05a 95bc d9cb 96ba 6c38 a6bd
00000050: d3a9 abbe 0845 63be 44d8 c1bc bb2d 96bc
00000060: 1450 29be 66ea 74bd 7c7f bc3d ce4a e53d
00000070: c219 2b3e b87b 20be ae60 a8bc 43ea 27be
-0.04151216 -0.1603751 -0.15895768 0.10961497 -0.08015009 -0.03197568 0.10686598 -0.08876798
-0.13814548 -0.18122281 -0.19488662 -0.067680016 -0.22554256 -0.28204015 -0.19040623 0.13287011
-0.22381933 -0.01823178 -0.0011504843 -0.0811623 -0.33528003 -0.22194302 -0.023662694 -0.018332353
-0.16534454 -0.059793852 0.09204003 0.111959085 0.16709045 -0.15672195 -0.020553913 -0.16397958

res1.bn2.running_mean f4 [32]
00000000: 5304 0abf b695 163f 6a68 443e 2e13 fbbf
00000010: 0b58 513f 3a3b 83be 8010 d83f a4f0 fa3f
00000020: 6c42 4b3e e1ac 65bf 4e5b f6be 162e a73f
00000030: 8b3a b53f 1778 92bf a79f 9c3d d99e 2fbf
00000040: 257e b3bf e1ee bd3f 2dc9 373f 0ad6 9d3e
00000050: 98d2 343e aac1 233e 371f 4840 ecb1 d53f
00000060: a90c 38bd 3872 2b3f c610 06bf fcd7 233f
00000070: d590 c7bf 383a 6fbf 4031 2a3e 4507 0dc0
-0.5391285 0.5882219 0.19180456 -1.9615228 0.8177497 -0.25631124 1.6880035 1.9604688
0.19849557 -0.8971692 -0.48116535 1.3060939 1.4158491 -1.1442899 0.07647639 -0.6860176
-1.4022871 1.4838525 0.71791345 0.3082736 0.1765846 0.15991846 3.1269052 1.6694922
-0.04493395 0.6697116 -0.52369344 0.6400144 -1.5591074 -0.9344821 0.1662035 -2.2035687

res1.bn2.running_var f4 [32]
00000000: 780a 743f 707b a03f 603e e13f 0f7b a83f
00000010: 8b94 753f 3036 213f 72ea c33f f569 793f
00000020: 0275 1440 8d9c 593f c858 b33f f95d e63f
00000030: b2f6 9d3f 6014 843f afca 0840 4f3c 6d3f
00000040: 606e ca3f 7473 553f 4f7b f33e 2eea 1f3f
00000050: da77 923f d4ea c43f e0c0 d93f 02f2 ad3f
00000060: 8467 1d3f 053b db3f b2a6 333f 0d1e 9f3f
00000070: f601 8c3f afc8 853f 0cf6 0d40 85d5 673f
0.95328474 1.253767 1.759716 1.3162555 0.95929784 0.6297331 1.5305922 0.974273
2.3196416 0.850045 1.4011469 1.7997428 1.234091 1.0318718 2.1373708 0.9267015
1.5814934 0.8337929 0.47555014 0.62466705 1.1442826 1.5384164 1.7011986 1.358948
0.6148608 1.7127386 0.7017623 1.2431046 1.0938098 1.0451869 2.2181425 0.9056018

conv_expand.weight f4 [64, 32, 3]
00000000: e9db d5bd d260 29bb 6596 21bd a328 c0bb
00000010: 0d56 923d ae84 e73d bf3e 59be 84c6 2bbe
00000020: 0e15 e83c fd87 083c c417 773d e003 c6bd
00000030: 41c3 4fbc 585b c53b 4482 c63d f83d dfbc
00000040: a4b8 fb3b cc84 7cbc 49e8 87bd 6556 30be
00000050: 2feb 71be 567d 1b3e 3901 02bd f972 6abe
00000060: 8f76 81be 0ce4 b9bd 934c 923c 0f00 1dbc
00000070: 3698 ee3c 1783 3c3e 1995 54bd 4e69 aebc
00000080: c809 883d 9ed9 fbbc cfd0 47bd 8028 80bd
00000090: 0e43 883c c10b f5bb 2bf1 aabb 8c30 53be
000000a0: 0240 1ebc aaf3 b73d c4b6 0a3c 285c 493d
000000b0: f404 18be 98ac 32be 04e0 24b9 481d c83d
000000c0: 03df d53d 4927 fc3d 1ebd b2bd 53ba af3c
000000d0: 6100 8dbd 2d4e 72bd c278 95bc 4cc0 c33c
000000e0: 24b0 b03d 760f 9e3d 1f4f 103e 9f28 50bd
000000f0: b68c e23d 14f8 ce3d b83e 853d da6e 65be
00000100: 8c34 e0bd 3c38 0c3d 3f48 d8bb c8e9 2bbe
00000110: 5c92 16be 4822 393e 0d24 c63d 3381 4bbe
00000120: e010 e53d c404 573e 6743 eebc ec16 50bc
00000130: 7bac 013d 0a2f f5bc acaf c53d 9b72 4dbd
00000140: 3303 95bd 8d60 133e e03d c63c 4993 923d
00000150: ea1d ef3d 2f91 dfbc 3044 4e3e b85b 15be
00000160: 9731 53be 62ce e7bd 13d2 133d 0771 943c
00000170: 7ba2 bebd 9c49 e6bd 6a8b 01be c96c f33d
00000180: 30ae 94bd e3a3 d73d f2fd d93d 487f 0abe
00000190: 57a3 e1bd 4f91 173a 0500 a4be b273 75bc
000001a0: dedb 3c3c 0e16 043e 9ebb 903d 1f18 573e
000001b0: 4f3b d4bd 6a83 19ba d212 2c3e a174 c1bc
000001c0: 6333 453e fb70 d63d ef31 afbd 9bba e43d
000001d0: 6875 303e 5e00 e2bd a2dd b53d ea83 15be
000001e0: a6e0 713c 9a60 89bd ea28 d03c d946 e1bd
000001f0: 8c3d 9ebc 2f23 193e 3404 97bd 56ca d33b
00000200: 714c 073e 82ed 28be b846 053d 78bc 963d
00000210: a73d b0bc bf18 f0bd e077 673e cdbb 9f3d
00000220: 5548 b8bd 4400 03bd 67ad b1ba c8e7 443d
00000230: bc28 863d 089f 92bc 3000 5e3d 374c 123d
00000240: c59b 15bd e4ef 503d 09f8 083e 4e2e 4ebd
00000250: 37e3 d7bc 9d95 dc3d fc1f 0f3e 9882 d33c
00000260: c8aa 24bc a35d 52bd d7cd e6bd a004 a3bc
00000270: f2fb 57bd 6ecc 353d f406 f33c 53c4 5bbd
00000280: e8af 06bb 8ee6 49bd f59a 3d3c 1742 023d
00000290: 96f4 c93d da38 c93d 5d38 173e 5b9a 363d
000002a0: b81a e63d c019 ccbd e085 803d fd45 d4bc
000002b0: a578 d0bc 2103 5abe a2e1 793d 4a42 19be
000002c0: f5f1 343e 4608 a8bd d9a8 553d c630 8a3d
000002d0: 2f97 babd aeb3 00be 34cd 773e 6851 b1bd
000002e0: 2989 0ebb 081d 883c a534 6fbd 7e92 49bd
000002f0: 80ab 813e 9449 303e a0d2 89bd f37b 953d
00000300: cec4 89bd 58b4 743e 3e25 be3d 6414 3cbd
00000310: 71b1 7ebe 3b17 bc3b 0e47 3abe ab13 a2bd
00000320: dca6 d2bc 9bed e8bd e40a a53b 0564 343e
00000330: 3359 aabd 3287 fbbc 6e9b 103d 68d9 7c3d
00000340: 0f2a 3e3e f697 943d f0f9 223e c82e 673c
00000350: 8572 07be 4986 81bd 6334 99bd b23a 00be
00000360: bebd a0bd 1abd 2e3e caab 16be 8649 be3c
00000370: 3a7f 1a3e 96fd a9bd 878f 323e 067b 523d
00000380: e0df 04be f9d9 edbd a2e8 643d 4eaf 6abe
00000390: 7436 4c3e c48d 923d fbc7 c9bd 007e 04bd
000003a0: f698 573d d3ca 04bd bf15 e6bd 2fb8 3abd
000003b0: d615 003e 8568 d33b f202 873a ffa4 343d
000003c0: 4fb5 6dbd 7ee9 3a3c f079 0f3d f11a c9bd
000003d0: 2c2c 74be 2a1f 1bbc 1270 90bd e7b6 1f3e
000003e0: e824 6ebd 86ef dcbc ad1c 01bd 26fe 3f3d
000003f0: 1eab 033d 959a ee38 5549 04bd 6325 033e
-0.10442335 -0.0025845063 -0.039450068 -0.0058642193 0.07145319 0.113046035 -0.21215342 -0.16774946
0.028330352 0.008333203 0.0603254 -0.09668708 -0.0126808295 0.006022852 0.09692815 -0.027251229
0.007681923 -0.015412521 -0.06636102 -0.17220457 -0.23624872 0.1518453 -0.031739447 -0.22895421
-0.25285766 -0.090766996 0.017858779 -0.0095825335 0.029125314 0.18409382 -0.051900003 -0.021290448
0.066424906 -0.030743416 -0.04878312 -0.06257725 0.016633537 -0.007478208 -0.0052167377 -0.20623988
-0.009658815 0.08982022 0.008466426 0.049160153 -0.1484564 -0.17448652 -0.00015723711 0.0977121
0.10442927 0.123121805 -0.087274775 0.021451151 -0.06884838 -0.059156585 -0.018246058 0.023895405
0.08627346 0.07717793 0.14092682 -0.05081999 0.11061995 0.10105911 0.06506103 -0.22405568
-0.109475225 0.034233317 -0.0066004093 -0.16788399 -0.14704269 0.18079484 0.09674845 -0.19873504
0.11184859 0.20997912 -0.029084874 -0.0127007775 0.03165863 -0.029929657 0.096526474 -0.050158124
-0.07276001 0.143923 0.024199426 0.07156999 0.116756275 -0.027290909 0.20143199 -0.14585769
-0.20624386 -0.11318661 0.036089014 0.018120302 -0.093083344 -0.112445086 -0.12650838 0.118859835
-0.07259786 0.10529306 0.10644139 -0.13525116 -0.11017483 0.00057818455 -0.32031265 -0.014981197
0.01152703 0.12899038 0.07067035 0.21005295 -0.10362875 -0.0005856069 0.16804054 -0.023615183
0.19257884 0.10470768 -0.08554446 0.11168405 0.17232287 -0.11035226 0.08880164 -0.14601102
0.014763033 -0.067078784 0.025410134 -0.10999841 -0.019316457 0.14954828 -0.073738486 0.0064633293
0.13212754 -0.16496852 0.032538146 0.07360166 -0.021513773 -0.1172347 0.22604322 0.07799492
-0.08998171 -0.031982675 -0.0013555706 0.048072606 0.06550738 -0.017898098 0.054199398 0.035717215
-0.036525507 0.051010028 0.13375868 -0.05033713 -0.026353462 0.10770724 0.13977045 0.025819108
-0.010050483 -0.05135883 -0.112697296 -0.019899666 -0.05273051 0.044384412 0.029666401 -0.053654026
-0.0020551626 -0.04929214 0.011572589 0.03180131 0.09861104 0.09825297 0.14767595 0.0445808
0.11235565 -0.09965849 0.06275535 -0.02591228 -0.025448153 -0.21290256 0.061006196 -0.14966694
0.17670424 -0.08204703 0.05216298 0.06747584 -0.09110867 -0.12568542 0.24199373 -0.08658105
-0.0021749234 0.016615406 -0.058399815 -0.04921197 0.25326157 0.17215568 -0.06729627 0.07299032
-0.06726991 0.2389692 0.09284447 -0.045917884 -0.24872376 0.005740074 -0.18191168 -0.079139076
-0.02571433 -0.11373445 0.0050366987 0.1761628 -0.08317795 -0.030704115 0.03530448 0.061730772
0.18570732 0.07255547 0.15915656 0.014110275 -0.1322728 -0.06324441 -0.07480695 -0.1252239
-0.078486905 0.17064324 -0.1471397 0.023228418 0.15087596 -0.08300321 0.17437564 0.051386856
-0.12976027 -0.116138406 0.05588592 -0.22918436 0.19942647 0.07155946 -0.09852596 -0.032346725
0.05263611 -0.03241999 -0.112346165 -0.045585807 0.1250833 0.0064516687 0.001030056 0.044102665
-0.058034237 0.011408208 0.035028398 -0.09819592 -0.23844975 -0.009467879 -0.07052626 0.15597115
-0.058140665 -0.026969682 -0.031521488 0.046873234 0.032145612 0.000113775175 -0.032296497 0.1280723

conv_expand.bias f4 [64]
00000000: 0683 e3b8 4886 fab9 68a9 d037 f017 f336
00000010: c482 d8b8 0855 2039 2279 4439 a72d 10b9
00000020: a073 71b9 520e c039 e652 3739 c922 89b9
00000030: 09cb fb38 a00a 5737 4387 9b38 8fd1 be38
00000040: 6372 5db9 ed2d 07b9 9e80 ebb8 7983 ab38
00000050: a035 57b6 7c8f 08b8 88a2 3cb9 0b3d 7cb8
00000060: 9577 65b9 e931 2639 224d 2239 402f 9cb5
00000070: 2676 5b39 0d55 b039 cd2c 6639 9b4a 1bb9
00000080: 1200 aeb8 3aaf bdb8 f859 2239 1b01 bf38
00000090: bf0b 8039 f505 1239 fe1a eeb8 a544 bd38
000000a0: 02a3 3a38 0093 2cb6 74b8 d1b9 8150 8b39
000000b0: c685 ce39 9ac5 003a 789c 99b7 1376 37b9
000000c0: 6eaf 3cb8 84f2 a0b9 d031 4f37 366d 6f38
000000d0: 1099 2639 bebd 2238 1964 a0b7 fa6c 3639
000000e0: 2f56 15b9 c4dd 58b9 d165 f0b9 79ec 9b39
000000f0: 4cd2 5238 b309 ce38 cef6 02b9 b696 e839
-0.000108486085 -0.00047783763 2.4874418e-05 7.244751e-06 -0.000103240396 0.00015290466 0.00018737142 -0.00013749917
-0.00023026625 0.00036631763 0.00017483122 -0.00026156593 0.00012006431 1.2817472e-05 7.4161704e-05 9.098939e-05
-0.00021118815 -0.00012891712 -0.0001122963 8.178404e-05 -3.206871e-06 -3.2558557e-05 -0.00017989625 -6.0138333e-05
-0.0002188369 0.00015849587 0.00015478258 -1.1636657e-06 0.00020929481 0.00033632704 0.00021951199 -0.00014809745
-8.29698e-05 -9.044861e-05 0.0001548304 9.1077956e-05 0.00024422814 0.00013925864 -0.00011353752 9.025008e-05
4.449767e-05 -2.5715563e-06 -0.00040001015 0.00026572126 0.0003939105 0.00049122574 -1.8311883e-05 -0.00017496226
-4.4986074e-05 -0.00030698266 1.2349759e-05 5.708375e-05 0.00015888014 3.880052e-05 -1.9120098e-05 0.0001739747
-0.00014241853 -0.0002068198 -0.00045852226 0.0002974009 5.0263756e-05 9.824652e-05 -0.00012489708 0.00044362777

bn_expand.weight f4 [64]
00000000: aa72 7c3f f2e5 6b3f 14a5 543f 9ec0 743f
00000010: d3e0 553f 4a1f 4f3f 7a83 3d3f 1349 523f
00000020: 5386 693f 8bf4 693f ba73 3c3f 2ceb 4a3f
00000030: 1e01 4e3f ac3f 603f aea2 3f3f e697 4e3f
00000040: b7cf 6e3f 2f02 483f 1382 393f 3d8c 3d3f
00000050: b65f 5c3f 6cbe 4b3f d758 693f 598c 763f
00000060: 843f 3b3f b8fb 363f f6d4 3f3f 8a06 653f
00000070: 9dfd 673f 1906 7a3f e7ce 5f3f 39b9 4c3f
00000080: 59b7 553f 888a 7b3f 4036 3b3f 901f 663f
00000090: fb23 5f3f 7390 4a3f 9cd3 283f fd9e 5f3f
000000a0: 7672 673f 6387 723f b9b5 5a3f 59bf 463f
000000b0: 9fff 4c3f 7c83 553f 40e6 533f e8f2 603f
000000c0: e9ec 5d3f 92c9 533f 184e 5a3f dd2e 5a3f
000000d0: ab9f 603f 4f93 673f ff61 423f da78 613f
000000e0: db60 473f 2b59 523f e56f 613f 7765 693f
000000f0: 8338 543f b8c1 503f 2a8f 523f 4923 4c3f
0.98612463 0.92147744 0.8306439 0.9560641 0.8354618 0.8090712 0.7402874 0.8214275
0.9122059 0.9138877 0.73614085 0.79265094 0.80470455 0.87597156 0.74857605 0.8070053
0.932857 0.7812833 0.724641 0.7404211 0.86083543 0.79587436 0.91151184 0.96307904
0.7314379 0.7147784 0.7493433 0.894631 0.9062136 0.97665554 0.8742508 0.7997013
0.8348289 0.98258257 0.73129654 0.8989191 0.87164277 0.7912666 0.6594789 0.8735197
0.9040903 0.94737834 0.85433537 0.77635723 0.80077547 0.83403754 0.8277321 0.87870646
0.8668962 0.82729447 0.8527541 0.8522776 0.87743634 0.9045915 0.7593078 0.8807503
0.77882165 0.8216731 0.8806136 0.9117045 0.8289873 0.8154559 0.822497 0.7974134

bn_expand.bias f4 [64]
00000000: 4020 e7bd 0c01 03be 3a55 78be 2ed1 9fbd
00000010: e557 3cbe b66b 05be d403 2abe f76c eabd
00000020: e752 3cbe 14d3 30be fcea 84be 88b1 f7bd
00000030: 4090 dfbd 803e e4bd 666c 81be 2208 5bbe
00000040: 305f 1fbd 94fd 96be 8d6c 8ebe 4334 ebbd
00000050: aa3c 80be 8bba 83be b7ea 12be 8e65 24be
00000060: 013c e9bd dc96 0bbe 4fa3 dbbd 15d2 19bd
00000070: c1f6 f9bd 3d3c 02be 2324 6cbe c1a4 60be
00000080: 8784 28be 2e32 8abd d702 aebe 8e79 32be
00000090: 59b3 8bbe 7081 cbbd 26a9 42be 0ea7 27be
000000a0: 23ac 1dbe aaaa 61bd a87d 4abe 5afa 81bd
000000b0: 248f 6fbd 1227 2fbe fcaa ecbd d223 12bd
000000c0: 0b06 09be 7ab8 79be 4227 89be 8c50 98bd
000000d0: f4ec b4bd 4c84 94bd 8d2d d9bd 26dc f4bd
000000e0: fdaa 93be bfd2 39be 1c4d f4bd 4756 cebd
000000f0: a915 2cbe d917 dbbd 8552 0fbe 2605 25be
-0.11285448 -0.12793368 -0.24251261 -0.0780357 -0.18392904 -0.1302937 -0.16603023 -0.11446565
-0.18391 -0.1726802 -0.2596053 -0.12094408 -0.109161854 -0.111447334 -0.25278014 -0.21389821
-0.038909137 -0.2949034 -0.27817193 -0.114845775 -0.25046283 -0.25728258 -0.14347349 -0.16054365
-0.11388398 -0.13631767 -0.10724508 -0.037553865 -0.12205268 -0.12718292 -0.2306066 -0.21937849
-0.16456805 -0.06747852 -0.33986542 -0.17429182 -0.2728527 -0.099367976 -0.19009838 -0.1637232
-0.15397696 -0.0550944 -0.19774497 -0.06346579 -0.05848612 -0.17104748 -0.1155605 -0.035678692
-0.13381211 -0.24386778 -0.26787764 -0.07437238 -0.08834258 -0.07251796 -0.10604391 -0.119560525
-0.2884139 -0.181468 -0.1192877 -0.1007505 -0.16805138 -0.10697908 -0.13996322 -0.16115245

bn_expand.running_mean f4 [64]
00000000: 8801 33bf a0e3 3b3f fbe1 2fbf f327 9cbe
00000010: f106 5abe d2ea 17bf 7368 a5b9 1d93 d1be
00000020: ac9c 933e 0b2b 18be 8936 d03e d794 f1be
00000030: 459b b83e bb76 32be c030 04bf 0a86 5ebf
00000040: 594b 95be af33 c83f 4646 ccbd abc1 80bf
00000050: e41f e9bf dbe8 febf 9917 b93f 1454 a7bf
00000060: 8af6 913f 2d8d 6fbf 7022 b0bf d0e9 c03d
00000070: 96fd fbbe 1d19 e1bf df40 453f d393 72bf
00000080: 5fff 15bf 18b9 4e3e 8666 953f 4048 a1bf
00000090: e7b2 01be add5 72bf d527 69bf dc29 83bf
000000a0: bed1 0f3e adab dabf a265 07bf 79e1 a2bf
000000b0: 86c6 3cbf b184 dabf 2956 cdbf d4ef 9bbf
000000c0: 1096 bbbf 8031 a4be bdd8 8fbf b125 b2bf
000000d0: a55a 0cbf f313 f8bf 4003 19c0 9239 fa3f
000000e0: 473d d93c a450 15bf 3e1e 103f ff38 23bf
000000f0: be84 68bf e411 c7bf 0154 97bf 4ef6 85bd
-0.6992421 0.73394203 -0.68704194 -0.3049923 -0.2129171 -0.5934268 -0.00031549073 -0.4093255
0.2883047 -0.1486017 0.40666607 -0.47183868 0.3605596 -0.17428105 -0.51636887 -0.8692328
-0.29159048 1.5640773 -0.09974341 -1.0059103 -1.8212857 -1.9914812 1.4460326 -1.3072534
1.1403363 -0.9357479 -1.376051 0.09419596 -0.49216908 -1.7585789 0.7705211 -0.9475681
-0.5859279 0.20187795 1.1671913 -1.2600174 -0.12665902 -0.94857293 -0.91076404 -1.024715
0.14044854 -1.7083641 -0.52889454 -1.2725059 -0.7374042 -1.7071744 -1.6041919 -1.2182565
-1.465517 -0.32069016 -1.1238018 -1.3917753 -0.5482581 -1.9381088 -2.3908234 1.9548819
0.026518477 -0.5832617 0.56296146 -0.63758844 -0.9082755 -1.5552335 -1.1822511 -0.065411195

bn_expand.running_var f4 [64]
00000000: 3e2d ce3f 9f43 533f 4d8f 593f 0358 243f
00000010: e252 863f c261 b13f d67e 973f edcc a63f
00000020: 6ca2 0f3f 54e3 673f 0b03 ce3f 57f9 3d3f
00000030: 84b6 ab3f b965 8f3f 8a67 f23f ab26 473f
00000040: 6d5a 253f 6dfa c13f 3961 663f c44b 5e3f
00000050: de9c 663f 1ed1 ac3f 9b52 b13f 1c7e 243f
00000060: b5ba 823f f21e 703f 450b 9f3f cd97 423f
00000070: 4586 473f 6ed3 383f c22d 983f e180 383f
00000080: 8ef0 803f 001d a03f 4933 dc3f 0f2c 903f
00000090: 0759 613f f015 b83f 7a1b 6a3f 75c4 3f3f
000000a0: f038 8f3f 912b 693f b394 543f 0433 723f
000000b0: e673 a53f 618c 863f da08 8b3f d13d 323f
000000c0: b3f2 bc3f faf2 223f 65e1 573f c553 403f
000000d0: 10ee 843f 506e c03f 04d1 1840 a833 aa3f
000000e0: 4c77 1d3f d367 ac3f 7fa4 583f 66d0 cf3e
000000f0: 2a9b 973f b196 a13f ad82 a13f 5002 4d3f
1.6107557 0.82525057 0.84984285 0.64196795 1.0494044 1.3857958 1.1835582 1.3031288
0.5610721 0.9058125 1.6094679 0.7420859 1.3415074 1.1202918 1.8937848 0.7779338
0.64591104 1.5154549 0.899921 0.8683436 0.9008311 1.3501318 1.3853334 0.6425493
1.0213228 0.9379722 1.2425314 0.7601288 0.77939254 0.72197616 1.1888964 0.72071654
1.0073411 1.250885 1.7203151 1.1263446 0.8802647 1.4381695 0.91448176 0.74909145
1.1189251 0.910821 0.83039397 0.94609094 1.2925994 1.051159 1.0862076 0.69625574
1.4761566 0.63652 0.843283 0.7512782 1.0385151 1.5033665 2.3877573 1.3297014
0.6151016 1.3469185 0.84626 0.40588683 1.1844227 1.2624112 1.2618004 0.80081654

res2.conv1.weight f4 [64, 64, 3]
00000000: 29c8 a13d 913f 0b3e 8b09 333e 13a4 2dbd
00000010: 3aea 863d 7209 4a3e 89d3 4c3d 9dbf 313d
00000020: e6da 62bd e282 26be 4cb4 2abd e63e 253e
00000030: 068e 04be 9c01 323d 8373 5e3e 0d8e 28bd
00000040: f061 a1bd 83b5 9abd 4346 c73c 15d4 4e3c
00000050: 7a47 043d 6b0e 843d 5916 1ebd a5cd 083e
00000060: 8279 573e 8601 a03d 49ae 8cbd 49f9 8dbd
00000070: 1a8d 243d 4d95 d73d 4ec8 cabc 0b7c 543d
00000080: 0799 903d 1210 aabd 2332 86bd f73d 5a3d
00000090: bb3a c6bd fc3e 5dbc 41a7 1f3e 95b2 acbd
000000a0: 7404 463c bebb e1bd a717 1cbd caea 893c
000000b0: 28a5 793b 30eb 60bd b7f8 0c3e df89 a4ba
000000c0: 83a4 02be 2dcf 3dbd 89d1 22be 1e2c 043e
000000d0: cb60 f73d 12ec 883d e5be 2cbd 90c4 cabc
000000e0: 4a97 b23a b902 4ebc 4f2a 373d d507 573e
000000f0: e902 d0bd 8c64 573d a69b 353e 1473 87bc
00000100: 53af 953c 3228 293d 3d32 99be 9a49 b4bd
00000110: facd b0bd 18d9 9b3e 1b22 903d a1eb 783d
00000120: 2795 193d 1081 313c a0ca 74bb e4f3 cdbd
00000130: 4da3 22bd 83d3 173d 65ac fc3d 2d36 e8bb
00000140: bb74 e3bc d09d cf3d 02e2 aabd 425f 8d3c
00000150: 0067 02bd b438 593d 3a9b 573c b703 90bc
00000160: f5f0 0abc 0891 90bd 73d1 af3d c95b bb3d
00000170: debe 673d cd70 56bc 0934 9e3d 4a56 513d
00000180: d3bd e63d 4390 ddbd 32e0 eabc 5e60 1dbe
00000190: b78a d5bd 397e c33d fe17 eebc 38d0 dbbd
000001a0: 99ed 87bd 7916 aabd bc8e 8e3b 5a41 813c
000001b0: 7c40 46be 103d 843c deb7 583e 23d3 f5bd
000001c0: f9ee 9bbd d2a6 843c 9cf0 453e b365 ae3c
000001d0: 3c1e e13b d126 eabd 513b 7bbd b05f 45bd
000001e0: 2ab0 ab3d 4eb0 a1bd 73d3 34bd 4d5c 5f3e
000001f0: da8f 8c3d 6ba7 02bd ce62 683c 1812 62bd
00000200: f33f 90bd b08e 853c 85fb c4bd aa7c bfbd
00000210: 8ac8 a3bd eefa ccbb 3fba 16bd d4b1 2b3d
00000220: 1047 893d 9ac7 96bd b3c7 70bd 2067 563d
00000230: 8f2f f13d fa76 15bc cea2 f9bd cabb 38be
00000240: 5532 fbbb b16e 9cbc 6d97 e43b 727c 30bb
00000250: 4b26 cd3c c38d ffbd 2782 c53d 2086 01bd
00000260: c676 e53c d72a 483d cc5d b83d 8a63 ce3d
00000270: 4faf a63d f8e9 ec3c 3246 763d 204a 46bd
00000280: 68a1 193e 8bf7 1dbb a1a1 013d 104b 3e3c
00000290: 0c9e 2ebc 836c 87bd 98a1 f3bc 899c 393d
000002a0: 718f 483d 8ff9 4b3d 2af2 d73d 3df3 43bd
000002b0: e01f 8c3c be19 d5bb 2112 0e3d 49f2 903d
000002c0: 37cf e33d 05da a63c 3ef9 aa3a f84b 01bd
000002d0: 9dfc 8dbb f08f 50ba 1d1e 66bd 989f f33d
000002e0: 88ea 923d d995 e13c a85b ba3c 877d 25bd
000002f0: facd d3bc ccaa d83b b7a6 1ebc 267d d4bb
00000300: 60f4 60bd 0306 8ebd d93a cc3d 1bda eabd
00000310: 8d23 6ebc c996 5bbd 4377 7c3d 2409 dabd
00000320: b6e8 22bd 3d8c 00be 7b37 febd 7605 dbbd
00000330: cb5e c1bd 3b85 063d 3c89 b13d afdc 053e
00000340: 7e46 87bd ada9 94bd 9742 bc3c 892e 3ebd
00000350: 6adf 80bd 73ad 48bd 88f4 a0bb b86a 073d
00000360: 6502 aabd ee26 a43d f469 293d 36cd edbd
00000370: 6665 c0bc a80f bb3d 075e a93c 92ea 54bd
00000380: 0563 d8b9 2995 e1bd 2228 92bd f293 9b3d
00000390: 8447 df3c dcd6 333d 1e89 403d b76f e0bd
000003a0: 3983 d7bc 8901 ec3d 8978 28bd d3d9 143e
000003b0: 2524 8cbd 0986 1ebe a085 663d 6a97 5d3d
000003c0: db28 a0bd 3d33 313e 62b9 3dbb 8914 6ebd
000003d0: 94ce 91bd 558d 1e3e 9845 9dbc b27e c2bd
000003e0: 8ae9 6b3c 5e03 1e3d e033 99bc 8b2c 80bd
000003f0: 0bbb 313b ebb8 0dbe 5193 b53b 287f fc3d
0.07899506 0.13598467 0.17484109 -0.0423928 0.06587644 0.19730166 0.050006423 0.043395627
-0.05538454 -0.16260865 -0.04167585 0.16137275 -0.12944803 0.043458566 0.21723752 -0.041151095
-0.07880008 -0.07554152 0.024325496 0.0126238065 0.032294728 0.064480625 -0.03859553 0.13359697
0.21042445 0.078127906 -0.0686918 -0.06932313 0.040173627 0.10526524 -0.024753716 0.05187611
0.07060438 -0.083038464 -0.065525316 0.05328175 -0.09679171 -0.013503786 0.15591146 -0.08432499
0.012086023 -0.11022137 -0.038108494 0.016835589 0.0038092826 -0.054911792 0.13766752 -0.0012553296
-0.12758069 -0.046340156 -0.15900244 0.12907454 0.12079009 0.06685652 -0.04217424 -0.024751931
0.001362541 -0.012573891 0.044718083 0.20999081 -0.10156805 0.052586123 0.17735156 -0.016534366
0.018272078 0.0412981 -0.2992114 -0.08803101 -0.08633037 0.30439067 0.07037755 0.06077159
0.03749576 0.010833994 -0.003735222 -0.10056284 -0.039706517 0.037066948 0.12337569 -0.0070865364
-0.027765622 0.10137522 -0.08343889 0.017257337 -0.03183651 0.053032592 0.0131595675 -0.017579896
-0.0084803 -0.070589125 0.08584871 0.09148366 0.05657851 -0.013088417 0.07724769 0.051107682
0.11266675 -0.10818531 -0.028671358 -0.15368792 -0.104268484 0.095455594 -0.029064175 -0.10733074
-0.06637115 -0.083050676 0.0043505114 0.015778232 -0.19360536 0.016142398 0.2116389 -0.12003162
-0.0761394 0.016192827 0.19330066 0.021288728 0.0068700593 -0.11433185 -0.061335865 -0.048186958
0.0838321 -0.078949556 -0.044146966 0.21812554 0.06863375 -0.031897943 0.014183713 -0.055193037
-0.07043447 0.01630339 -0.09618286 -0.0934995 -0.07997234 -0.006255499 -0.036798712 0.041917637
0.06703007 -0.0736229 -0.058784198 0.05234444 0.11776649 -0.0091226045 -0.12189256 -0.18040386
-0.007665912 -0.01909575 0.006976059 -0.0026929644 0.025042674 -0.12478211 0.09643965 -0.031622052
0.028010737 0.04886898 0.09002265 0.10077579 0.08138906 0.028920159 0.060125537 -0.048410535
0.15002978 -0.0024103846 0.031648282 0.011614576 -0.0106577985 -0.06612494 -0.02974014 0.0453153
0.04896492 0.049798544 0.10544236 -0.047839392 0.017105043 -0.006503313 0.034685258 0.07077462
0.111235075 0.020367632 0.0013044251 -0.03156659 -0.0043330924 -0.00079560187 -0.056181062 0.118956745
0.071736395 0.027537273 0.022748783 -0.040402915 -0.025855053 0.0066121574 -0.009683303 -0.0064846454
-0.054920554 -0.069347404 0.09972162 -0.114673816 -0.014534843 -0.053610597 0.061637174 -0.10646275
-0.03977271 -0.12553497 -0.12412926 -0.10694401 -0.094419084 0.032841902 0.086687535 0.13072465
-0.06605242 -0.072589256 0.022980971 -0.046431098 -0.06292613 -0.04899354 -0.004911963 0.03306076
-0.08301238 0.08015238 0.04136081 -0.116114065 -0.02348585 0.091338456 0.020674719 -0.051981516
-0.00041272506 -0.11014778 -0.07136561 0.07596578 0.027255781 0.043906078 0.047005765 -0.10958808
-0.026307689 0.1152373 -0.041130576 0.14536218 -0.068428315 -0.15480818 0.05627978 0.054099478
-0.078202926 0.17304702 -0.0028949608 -0.058125053 -0.0711948 0.15483601 -0.019198224 -0.094968215
0.014398942 0.03857743 -0.018701494 -0.06258496 0.0027119543 -0.13840072 0.005541243 0.12328941
