results/rruff/models/mineral_classifier.pth (torch, 294637 bytes, 22 tensors)

conv1.weight f4 [16, 1, 7]
00000000: ab0a bdbe d834 a9bc cdc4 a6be eaca b23e
00000010: 1bf6 8bbe 438b 3e3e 7ad1 d0bc d8fb 1f3e
00000020: 6e0e 873c 9f84 4f3e 288e 9fbd caa5 ac3e
00000030: 0173 023e aa6c 8e3e 531e 41bd 3f05 b03e
00000040: 3e11 95bd ba71 e2bd f6e5 89bd 5e60 6b3e
00000050: 6f62 a33e 2b98 893e 2e2f 88bd 8c41 fd3b
00000060: 48c0 dd3d 9da4 3c3d 93f1 253e 60c1 393e
00000070: 2c00 a1be 1bb4 623e 969e b4be cbb3 a43e
00000080: d91c ad3e 253d a5be 0dae 133e 8a63 b3bd
00000090: 117d 593e 2c96 2cbe d5a9 76bd c684 5a3e
000000a0: 52b7 bb3e 2710 67be b0ff bebd 4d13 3a3e
000000b0: d1d7 86be def1 89ba c089 303a 8855 afbe
000000c0: aac0 28bd 7a25 aabe dc16 d7bd 6424 86be
000000d0: d98d 223e 8d53 993e df1a 23be ee94 5ebd
000000e0: bd73 963e 9b43 c6be b74c 4c3c d393 bfbb
000000f0: d3b3 38be 3274 353d 8afa 053e 4222 2f3d
00000100: 7901 903e c3e2 78be 00ee 36be 8fa9 21bd
00000110: 3f20 9bbe e68f ac3e 729b 80be 0e74 a13b
00000120: ab6c 673e 2f0c 0b3d cc11 843c 97ba 3c3e
00000130: 8176 3fbe 169c 8dbd 0663 d33d 360f 753e
00000140: 9e2a 5cbd 2907 a7be 1f9a acbe 1665 bf3e
00000150: 374e b7be 7b25 a43e 7732 f63d 5de4 403d
00000160: 38ce 9fbe 13ba bcbe 8793 36be 2d26 923d
00000170: 3854 af3e 0ba9 ef3d 29a8 00be 32a2 36be
00000180: 9119 f23d 2c96 0abe c5d1 46be a349 a8bb
00000190: cef8 aabe c006 f3bd cae1 c13d 64b8 293e
000001a0: 83e2 2bbe 9b9c 4b3d fb5d b0bd 718b 91bd
000001b0: 2414 1abe 67fe 82be 7b64 2c3e 5695 36be
-0.36922202 -0.02065508 -0.32572022 0.34920436 -0.273362 0.18607812 -0.025490511 0.15623415
0.016486373 0.20265435 -0.07790786 0.33720237 0.12739183 0.2781728 -0.04714806 0.34379002
-0.07278679 -0.11056848 -0.06733315 0.2298598 0.31911036 0.26873907 -0.06649624 0.007728761
0.1082769 0.046055425 0.16205435 0.18140173 -0.31445444 0.22139017 -0.3527724 0.3216842
0.33811072 -0.32273212 0.14421864 -0.0875922 0.21239115 -0.16854161 -0.06022056 0.21339712
0.366633 -0.22564755 -0.09326112 0.18171425 -0.2633653 -0.0010524353 0.00067343935 -0.34244943
-0.041199364 -0.33231717 -0.10502407 -0.2619964 0.15874423 0.29946557 -0.1592822 -0.05434125
0.29385176 -0.38723454 0.012469462 -0.0058464794 -0.18037347 0.044300266 0.13083854 0.04275728
0.28126124 -0.24305253 -0.17864227 -0.039468344 -0.3029804 0.33703536 -0.25118595 0.004927165
0.22600047 0.033947166 0.016121767 0.18430553 -0.1869755 -0.06914537 0.103216216 0.23931584
-0.05375158 -0.3262265 -0.33711335 0.3738181 -0.3580186 0.32059845 0.12021344 0.047092784
-0.3121202 -0.36860713 -0.17829715 0.07136188 0.3424394 0.11702164 -0.12564148 -0.1783531
0.11821283 -0.13533849 -0.19415958 -0.0051357313 -0.33392948 -0.11866522 0.09466894 0.16574246
-0.16785626 0.049709897 -0.08611675 -0.071066745 -0.15046746 -0.2558472 0.16835205 -0.17830405

conv1.bias f4 [16]
00000000: f2c3 f93d b6a2 d737 0400 333c 1440 52ba
00000010: f564 0abe fca0 ba3d 5122 b23a 0fb1 3bba
00000020: 6ed3 10be 5732 90bd 258d c4bb 8f96 08bc
00000030: 43b2 22ba bad0 013b 9eb4 47bd 39ab a0bc
0.12195577 2.5705765e-05 0.010925297 -0.00080204126 -0.13515075 0.091127366 0.0013590549 -0.00071598677
-0.14143154 -0.070408516 -0.005998271 -0.008336677 -0.00062063726 0.0019808249 -0.048756234 -0.019612895

bn1.weight f4 [16]
00000000: 1f40 7c3f 3f18 813f 93ad 7c3f 8375 7b3f
00000010: 4c2d 803f d203 7e3f e09a 813f 465b 7c3f
00000020: 2478 7f3f 0e19 813f d0ec 7e3f 7fce 7e3f
00000030: aa5d 7f3f 18d1 7f3f 6f63 7d3f 0cd6 7a3f
0.9853534 1.0085524 0.98702353 0.98226184 1.0013824 0.9922458 1.0125389 0.9857677
0.99792695 1.0085771 0.995801 0.9953384 0.99752295 0.99928427 0.9897985 0.9798286

bn1.bias f4 [16]
00000000: 33c1 c1bc 81a6 44bc db5f 3abc 34fa a9bc
00000010: 5d14 bc3b 40cd a5bc 3a8e 883c 2811 3dbc
00000020: 14ff 16bc 11de 6dbc 3d20 44bc 0b3f a83b
00000030: 9fa8 85bb 81fa 86bc a6d5 99bc 5e83 9cb8
-0.023651695 -0.012002588 -0.011375393 -0.020749189 0.005739732 -0.020239472 0.016669381 -0.011539735
-0.009216089 -0.014518277 -0.011970577 0.0051344684 -0.004078939 -0.016476871 -0.018778633 -7.463129e-05

bn1.running_mean f4 [16]
00000000: 3af6 943d 2649 f63d 5f24 a53d 2c37 a63d
00000010: aaca 0bbe f15f 003e de17 81bd 64d4 66bd
00000020: 1ca2 22be d689 b9bd 170d f4ba 9661 98bc
00000030: 6852 acbd 5fb2 c83c b2dc f0bd 1dbd a8bd
0.072735265 0.12025671 0.08063578 0.08115992 -0.13651529 0.12536599 -0.063033804 -0.056354895
-0.15882152 -0.09059493 -0.0018619624 -0.01860122 -0.08414155 0.024499116 -0.11760844 -0.082391955

bn1.running_var f4 [16]
00000000: d75b 073c 9a3d 1c3d d545 473c ae70 8f3c
00000010: 8a2a 8e39 c257 193b e1b8 343c 4358 003c
00000020: ee3e de39 2971 543a c593 b038 fac9 8f39
00000030: 93b1 963c 366d eb3a 0fa0 373c b419 1f3c
0.008261642 0.038144685 0.012162645 0.017509785 0.00027116045 0.0023398255 0.011030407 0.007833543
0.00042390026 0.00081040204 8.419858e-05 0.0002742557 0.01839522 0.0017961625 0.011207595 0.009710718

conv2.weight f4 [32, 16, 5]
00000000: 9102 13bd f979 373c 6a2f a63d 5c03 1a3d
00000010: a91c e93c 910f d2bd 5100 3e3d 1868 82bb
00000020: d702 2d3d a8db a5bd 4687 dbbd 3c79 98bd
00000030: 8c13 d6bd 7a08 ac3d 1572 dcbc 5582 7abd
00000040: 7a3e 66bd cbef c8bd 6091 143d 44e2 1cbd
00000050: cbb0 8cbd 1369 e93d 8ff1 853d 64d4 bbbd
00000060: 1e06 0e3d d9fd 753d 0ce7 28bd 517d 2b3d
00000070: 3f51 453d 923a b73c 0da0 4dbc b97d ea3d
00000080: 210e 1c3d a892 4ebd acd1 78bc 0aa6 993d
00000090: eec7 a8bd 65be 823d b4a3 bfbc 10d6 30bc
000000a0: fdc0 f5bc a98a 3bbc 6ab9 59bd 7806 153d
000000b0: 106c bcbd 0223 01bd a9f7 c23c ec1a e4bd
000000c0: ff53 51bd 043d 70bd 1aa0 92bc d23d bd3c
000000d0: e532 1b3c e6a3 71bd 8ec1 a5bd 556c b8bd
000000e0: dad6 dfbc dddb 253c 734b 6c3d 57a2 9f3d
000000f0: e168 bebd 444c f23d f1bd 963d f7b9 b33d
00000100: d63c 5e3d 58e1 063d 55b8 893d 61f3 003d
00000110: f404 c8bd e9c4 94bd 1811 24bd 7e2d abbc
00000120: 8c70 a6bd 960d a4bc 80d7 85bd 739e a63d
00000130: 389d 3dbc 8b53 a3bd 5371 d33c 59fe fdbd
00000140: dd4e 9abd 58a9 42bd ce49 ddbd 3f90 f43d
00000150: 7796 083d e3e7 90bd 7cfb 333d 2031 283d
00000160: 42f2 b93a 4e16 083c 7ea3 4d3d 4799 b2bd
00000170: 2bc0 85bd 6105 81bd 5271 91bd 1a74 ca3b
00000180: 0633 e7bc 98ae d33c bdbb 68bd 8ffb e2bc
00000190: 2f72 cd3d b515 c2bd c0c9 553d 7e92 aa3d
000001a0: c3b2 c63c 76eb 963d 130f 9d3c 1d33 d7bc
000001b0: e387 eebd 533d fdbd ca30 593d d711 cb3d
000001c0: 17d6 173c dc24 4dbd 6877 b33d a184 95bd
000001d0: 8326 d83c 427c cebd 48cb a6bd 8fab 1c3d
000001e0: 5b30 c53d 8cf9 123d 7650 b0bd 9a62 973c
000001f0: d2bf d7bc ad30 a8bd 5947 4cbd 0e61 913d
00000200: e72d 103e a2bf 4c3c bc70 f73d 9314 273d
00000210: 4ae6 d83d 198d 75bd 6142 aa3c 7955 ab3d
00000220: c431 c03d 06ed 183c 61f2 39bd 7099 f9bc
00000230: 099c 91bd 06ab a53d c034 033d 25ce e3bc
00000240: 22dc a03c df25 6cbd 8a9b dc3c b156 cdbd
00000250: 9bda 99bd 0cf5 90bc 5661 38ba f4ac cfbc
00000260: e834 943d 4876 3abd 5799 85bd 90cc 8f3d
00000270: be10 aabd 0101 8f3d 286e adbd a59b eb3d
00000280: 06bd 0b3d 04ce 5a3d 604b fb3c d0ef cfbd
00000290: 4c8f 933d c77a 1ebc e433 dbbd 1e04 85bd
000002a0: 3338 87bd 4583 a93d bb2f 873d 792e b9bc
000002b0: 67a5 603c 8d5a d7bd b44d 363c e9ce e1bd
000002c0: ff59 0d3d 13ef d33d b1e9 853d 4c06 913d
000002d0: 9881 d03d eed0 58bd 564b 1e3d cf47 a2bd
000002e0: 4fb9 90bd 0096 653d 7dc7 7fbd e629 ba3d
000002f0: a3fb e53d dbbb 963c ce69 b43d eae4 cf3d
00000300: c82f ea3b 1b06 d33d 9ca3 68bc 5ea9 b9bd
00000310: 0c88 b13d cb7d 86bd 88bd 9fbd c42c d53d
00000320: 0a77 383d 3cc9 873c 08c7 0d3e 3081 953c
00000330: 4dbc 983c 887d 3c3d a209 ae3c 0eba c03d
00000340: 2264 8dbd fd18 1abd 6c7c e33c cd1e aa3d
00000350: a04e 6fbd e30b a1bd ad1b fbbc 01d6 9ebc
00000360: c37c 373d 1e47 e73a 56bf 0f3e 100c 6f3b
00000370: 6ec1 333d 7689 f63d 9fc8 b5bd 0067 e63d
00000380: debe 243d fa11 af3c 7c6a 623d 1540 bdbd
00000390: 8418 d63c c2b3 d63d 4022 5c3d 20ed 80b8
000003a0: c681 cf3d b042 a03c c530 713d cd4e ee3d
000003b0: 30ef 4cbd adf6 6bbd ec72 9c3d 9b6c 393d
000003c0: 607c 9ebd 80b0 963d 198d a73c 269f 72bd
000003d0: 468f 4e3c e36f bdbc f88f a53d 38d2 c13d
000003e0: f9e1 17bd 614f c9bd bf1f b23c ece7 93bd
000003f0: 3632 893c b7bd a93d dbec a2bc 5b98 883d
-0.03589112 0.011198514 0.08114512 0.03760086 0.028456049 -0.10256875 0.04638702 -0.003979694
0.042239036 -0.08098537 -0.10719161 -0.074449986 -0.10452947 0.08400054 -0.026909867 -0.06115945
-0.056211926 -0.09811362 0.036271453 -0.03830172 -0.06869658 0.113969944 0.06540214 -0.0917137
0.034673803 0.06005654 -0.04123597 0.041867558 0.048173185 0.022366796 -0.012550366 0.11449761
0.038099412 -0.05043283 -0.015186708 0.075023726 -0.082412586 0.06383971 -0.02339349 -0.010793224
-0.02999925 -0.011446633 -0.05315534 0.036383122 -0.09200299 -0.031527527 0.023799734 -0.111379474
-0.051105496 -0.05865194 -0.017898608 0.023100767 0.009472583 -0.058994196 -0.08093558 -0.09005038
-0.027324129 0.01012322 0.05768914 0.07794636 -0.09297348 0.11830953 0.07360447 0.08775704
0.054257236 0.03292975 0.06724612 0.031482104 -0.0976657 -0.0726412 -0.040055364 -0.020895716
-0.08126935 -0.02002601 -0.06535244 0.081356905 -0.011573128 -0.07974919 0.025810873 -0.124020286
-0.07534573 -0.04752478 -0.10805093 0.11941575 0.03334662 -0.07075479 0.043941006 0.041062474
0.0014186578 0.008306099 0.050204746 -0.087206416 -0.06530794 -0.06299854 -0.07101692 0.006178391
-0.028222572 0.025840089 -0.056819666 -0.027707843 0.100315444 -0.094767965 0.052194357 0.083287224
0.024255162 0.07369129 0.019172227 -0.02626949 -0.11647012 -0.12365212 0.053025045 0.09915512
0.009267352 -0.05008398 0.08763009 -0.073006876 0.026385551 -0.10082294 -0.081442416 0.03824955
0.09628364 0.035882518 -0.08609097 0.018479634 -0.026336584 -0.08212409 -0.04987273 0.0709859
0.1408001 0.012496861 0.12082049 0.040791105 0.10590799 -0.059949014 0.020783605 0.08365912
0.09384492 0.009333855 -0.045397166 -0.030468673 -0.071098395 0.08089261 0.03203273 -0.027808258
0.019636218 -0.057653304 0.026929636 -0.10026301 -0.07512399 -0.017694972 -0.0007033547 -0.025351025
0.072366536 -0.045522958 -0.06523388 0.07021439 -0.083039746 0.06982613 -0.08468276 0.11504296
0.034115814 0.053419128 0.03067559 -0.101531625 0.07205066 -0.009672827 -0.10703257 -0.06494926
-0.06602516 0.08276991 0.06600901 -0.022605168 0.01371131 -0.10515318 0.011126924 -0.11025793
0.034509655 0.10348334 0.06538714 0.07081279 0.10180968 -0.052933626 0.038646065 -0.07923853
-0.07066595 0.056051254 -0.062446106 0.09090023 0.112296365 0.018400123 0.08809243 0.10151084
0.0071468093 0.10303899 -0.014199164 -0.09065507 0.08668527 -0.06566962 -0.07799822 0.10408929
0.0450354 0.016575448 0.13845456 0.018250078 0.018644476 0.046018153 0.021244828 0.09410487
-0.069038644 -0.037621487 0.02776929 0.08306656 -0.058424592 -0.07863595 -0.030652845 -0.019389154
0.044796716 0.0017645096 0.14037833 0.0036475696 0.04388564 0.12037937 -0.08876156 0.112501144
0.040221088 0.021370877 0.055277333 -0.09240738 0.026134737 0.10483505 0.0537436 -6.1476836e-05
0.10132174 0.01956305 0.0588844 0.11636124 -0.050032794 -0.057608295 0.07639107 0.04526959
-0.077385664 0.073578835 0.020453023 -0.059233807 0.012607401 -0.02312464 0.080841005 0.09463924
-0.03708074 -0.098295934 0.021743653 -0.0722197 0.016747575 0.08288138 -0.019888332 0.066696845

conv2.bias f4 [32]
00000000: d089 6137 7ee0 96b8 22be e8b8 743f 18b7
00000010: 6e86 28b7 84f9 0fb8 79f2 81b9 284e 8338
00000020: 31f5 8f36 f8f5 35b6 002b 0837 2ac6 31b7
00000030: 4fbc bab8 763c 61b9 f4e2 abb8 a506 7836
00000040: dc60 7639 6b98 94b8 d1e1 6538 3d3b 08b8
00000050: 2d4f 1b35 0444 63b6 7e88 0f37 2a5e 0ab6
00000060: fa08 b3b7 2027 dab5 bcac 0bb7 84d6 b236
00000070: 1cb6 9bb7 e9e6 e0b6 c34f c437 7e70 cab5
1.3443132e-05 -7.194372e-05 -0.00011098037 -9.07468e-06 -1.004488e-05 -3.4326236e-05 -0.00024785454 6.2611245e-05
4.290276e-06 -2.7114274e-06 8.116243e-06 -1.0596161e-05 -8.904246e-05 -0.00021480196 -8.196189e-05 3.6958747e-06
0.00023496471 -7.08558e-05 5.4808163e-05 -3.2480097e-05 5.7857216e-07 -3.3865226e-06 8.555244e-06 -2.0618413e-06
-2.1342643e-05 -1.6253653e-06 -8.3252635e-06 5.3297863e-06 -1.8562241e-05 -6.7026017e-06 2.3402163e-05 -1.5082912e-06

bn2.weight f4 [32]
00000000: 37a3 793f b039 7a3f fab9 823f 555a 7f3f
00000010: 2637 7d3f b0f3 7f3f c45f 7d3f 03d5 7c3f
00000020: 0ce2 7b3f 63a4 7f3f da10 7c3f b590 7b3f
00000030: 82b3 813f a567 7a3f 007d 803f 5c26 823f
00000040: d32e 7a3f 40c1 7d3f 7493 793f 5b36 803f
00000050: 9c79 793f b7ff 7d3f 740e 7f3f 32a7 7e3f
00000060: cc86 823f cdc8 7a3f 2665 773f b44a 803f
00000070: 888f 7d3f 4e28 7d3f 9d86 7d3f 7c5a 7c3f
0.9751467 0.97744274 1.0213006 0.9974721 0.98912275 0.9998121 0.9897425 0.9876253
0.98391795 0.9986021 0.98463213 0.9826768 1.0132906 0.978144 1.0038147 1.0167956
0.977277 0.99123 0.9749062 1.0016588 0.97451186 0.99218315 0.9963143 0.9947387
1.0197387 0.9796265 0.96638715 1.0022798 0.99047136 0.98889625 0.9903353 0.9857557

bn2.bias f4 [32]
00000000: 1b89 51bc b611 4cbc 1cc4 6c3b db57 c4bb
00000010: efe4 8dbc 6491 a2bc 5927 5dbb 08a3 1a3c
00000020: a226 e03b 5f83 ff3a f961 8cbc f927 91bc
00000030: 1827 533c 373c 42bc dd0f f93c be58 fbbc
00000040: 600d 1338 54ee cdba 4b5e c5bc 8e51 64bc
00000050: 1c10 c8bc 10e0 71bc db62 0cbc 0e6b 26bb
00000060: 2fd6 5d3c a4e1 80bc 782a 063b 16f4 a4bc
00000070: c32f db3b a839 e9bc 063e 1d3d ed11 06bc
-0.012789036 -0.0124553945 0.0036127632 -0.0059919185 -0.017321078 -0.019844718 -0.0033745377 0.009438284
0.006840543 0.0019494108 -0.01713656 -0.017719256 0.012887739 -0.011855177 0.030403072 -0.030681964
3.5059988e-05 -0.0015711286 -0.024092814 -0.01393546 -0.024421744 -0.014762893 -0.008568491 -0.00253934
0.013539835 -0.015732594 0.002047209 -0.02013592 0.0066890432 -0.028469875 0.03838923 -0.008182985

bn2.running_mean f4 [32]
00000000: a5f0 adbe 6a96 433d b9be 113f 0b93 9f3c
00000010: cdb1 893e ce9b 4a3d 1ab4 553e 858a f23d
00000020: 4b8f c23e cd30 1b3e 1d15 62bd 1332 a9bd
00000030: 232c ff3d 32ff b3be 40e8 f1be 1d7e 99bd
00000040: 4c71 64be b2fe 943e 82ce 023e 53ac b63c
00000050: 574f 92bc f28b 88bc 1c00 3fbe 6a09 d43e
00000060: c410 babe 3574 0a3d 7577 9cbe a84f 033f
00000070: b1c6 bbbe b278 19be 2f1f 13be b145 80be
-0.3397266 0.047750868 0.56931645 0.019479295 0.26893464 0.049464993 0.20869485 0.11842827
0.3799995 0.15155335 -0.055195916 -0.08261504 0.1245959 -0.35155636 -0.47247505 -0.07494757
-0.22308844 0.29100567 0.12774089 0.022298967 -0.017860098 -0.016668294 -0.18652385 0.41413432
-0.36340916 0.03380223 -0.30559888 0.5129342 -0.36675027 -0.14987448 -0.14367364 -0.2505317

bn2.running_var f4 [32]
00000000: 7221 1b3e 4ca7 6e3e 8fca 083d f784 0c3f
00000010: 5387 883e 5ebb e63d 8712 e43d 04bb 053e
00000020: c713 823d 1f45 a63d 918f 1a3d 463a 0a3e
00000030: 1fe1 b93d 648f fb3d 0eb6 403d 39ef b63d
00000040: baaf 913e 166a dd3d 9d3f 1e3e a1c1 8b3d
00000050: 17c6 e63e babf 813e bc6b c13d c190 283f
00000060: f309 0a3e 556b 503e e663 c03e a355 b83e
00000070: 79a4 ca3d 953a 043e 89e7 4a3d 1e93 ba3e
0.15149477 0.23306006 0.0333963 0.5489039 0.26665744 0.11266206 0.11136346 0.13059622
0.063514285 0.081186526 0.03773457 0.13498792 0.090761416 0.12283209 0.04704862 0.08932347
0.2845438 0.1081125 0.15453954 0.06824041 0.45073006 0.25341588 0.09444377 0.65845877
0.13480358 0.20353444 0.37576216 0.36002836 0.09894652 0.12912972 0.049537215 0.36440367

conv3.weight f4 [64, 32, 3]
00000000: fb9c ec3b cd05 65bd 592e 9e3c 21d0 80bd
00000010: 0cbe 0cbd 687b 123b 15b8 9dbd 135e 8ebd
00000020: 669c e1ba d4d2 2bbd 154f b3bc e4e2 abbc
00000030: 1b88 ba3c 10c4 1bbd b275 5fbd e5e9 9fbd
00000040: d0b1 b0bd 5f71 8b3b e7b0 62bc 7673 263d
00000050: 29e8 16bc 2235 b8bd 6cbf 8b3d 5fbc 1b3c
00000060: feb8 6cbd 32fb 893d 3bce 4abc 3b77 af3d
00000070: aed1 933c 2e58 9d3d 7cca 5b3c 8cb0 16bd
00000080: 2129 cf3d 7a32 24bb 3f76 3fbc fdc5 8c3c
00000090: 9c58 13bd 3cde 57bd 6424 9fbd 163b b13d
000000a0: dda6 433d 1269 54bd 6836 76bd 5e74 643d
000000b0: 1024 b63d 4afe f53c 6805 803d 3494 863d
000000c0: 148d 98bd 6e5b 86bd 2286 cdbd d675 adbb
000000d0: a261 70bd 7177 8d3d 225e cebd bfab 9dbd
000000e0: dd22 983d 036c 9bbd 9325 bb3d aab2 e13c
000000f0: 8a71 fbbd f476 72bb 346d 93bd 81da 9abd
00000100: f323 33bc cc92 78bd 544b 5abd dff9 9cbd
00000110: 07ff 863d 5ffa a93d 3ef1 d9bd 44ff 3abd
00000120: 7f63 193d bec5 1abd 74c3 083d 9492 0a3d
00000130: 9e71 4f3d 862d c4bc c229 9f3d ec39 07bd
00000140: 5f73 1ebd cd7d d83c 6b6a a13d 81e1 c9bd
00000150: 267d 263d 0c72 37bb 52ff a23d 92d5 113d
00000160: 51a7 083d 6788 12bd 318b 933d b26c 443d
00000170: bdc8 1a3d 1fa7 7b3d 6825 fc3c 0dad 28bd
00000180: d60c 143d 22c7 8bbd 041a c03d 13f2 873d
00000190: 12b2 753b 7cb5 5d3d 282d dabd 9aa2 113b
000001a0: d75b dcbc 29b9 3c3d f783 bb3d dd11 ac3d
000001b0: 5db3 babd 1b2c bcbc d4d6 a53d e871 0bbd
000001c0: 5238 783d 3221 983d e9c6 44bd fcae fcbc
000001d0: 9b87 273d 2a31 f0bc bb1b 76bd f8ea c3bb
000001e0: 06e0 01bd 7377 83bc 475d 05bd 4367 e9bd
000001f0: 2545 5bbc a9da cabc 6616 68bd 618b 69bd
00000200: fd4c 853d e00e 69bc 3d31 acbd a96f a2bd
00000210: e9d6 983d 7c22 42bc 30d1 65bd b919 d4bc
00000220: e48a c7bc 5b60 99bd 8d46 8a3d e98c f4bd
00000230: e747 1f3d 0c61 a03c 479b eb3b b113 6a3c
00000240: 53f2 55bd 419c 4d3d 486d cdbc e13e 7b3d
00000250: 1618 37bd b87a a3bd aa7c db3c a297 83bd
00000260: 7c2e 9ebd 099a c63d 8439 5c3c f43e babb
00000270: 6ed8 83bd c1f2 a0bd 6f11 973b c885 58bd
00000280: 6296 b13d c09f 94bd 2af2 843d 8350 233d
00000290: 87c6 023c f300 ce3d 7078 8f3d 4cad a73d
000002a0: a5ea 563d df99 c53b ce2c 233b fd00 b83d
000002b0: 76e1 d53c 7ea0 b5bd f3c9 233c 407b 713c
000002c0: 3fbb 7abd 24ec fb3c 2e15 d23c ae55 38bd
000002d0: c6f9 303d 2f4e b6bd 9c21 1a3c ae84 c43d
000002e0: 6e17 07bd 426a c53d 419e f2bd d6c6 eabd
000002f0: a85d ac3b b3ba dc3c 9cd4 9cbd 1368 a83d
00000300: c84d 563d b858 f4bc 4236 8dbd 4b7b 31bc
00000310: 620e 9abd 894e dd3c 12ae ddbc cbeb 87bd
00000320: 7832 b0bd fb0e b43d 0af1 40bb 74f5 f3bc
00000330: b723 96bd 3db3 80bd f288 cd3a 6b23 be3d
00000340: 77d6 573d 48cc c6bd cf04 913d fa09 1b3d
00000350: 0164 8abd ef04 d7bc 10d5 30bd fed5 80bd
00000360: 0122 873d 9056 363d db4b c13d 32d4 cbbc
00000370: 2c80 87bd bb56 9fbd 00bb 5bbd dbd4 b2ba
00000380: f3ac ad3d 00a2 4dbd 3536 783d 1c2b 98bd
00000390: abbd 943c 36ff 193d 5c0a cd3c b329 11bd
000003a0: ab37 a43d 242b 7cbd 386a 383d beb8 c33b
000003b0: 9419 5ebd 41b0 0ebd df5d 86bd 8099 3f3b
000003c0: bae0 863d 7220 063a 92fd ba3c d92b 4bbd
000003d0: 11d0 afbd ae61 af3c db22 cc3d 2935 223d
000003e0: f1f5 93bd 2ca3 e7bc fcfc c7bd 92b6 a23d
000003f0: 3d81 35bd af69 c63a 1e65 3cbd b468 0a3d
0.007220862 -0.055913735 0.01930921 -0.062896974 -0.03436093 0.0022351388 -0.077011265 -0.06951537
-0.0017212748 -0.04194911 -0.021888295 -0.020982213 0.022769978 -0.038028777 -0.054555602 -0.07808284
-0.08627665 0.0042554582 -0.013836122 0.040637456 -0.009210625 -0.08994509 0.0682362 0.00950536
-0.05779361 0.06737365 -0.012378271 0.08567663 0.018044319 0.076828346 0.013414975 -0.036789462
0.101152666 -0.00250545 -0.011685907 0.017184252 -0.035973176 -0.052702174 -0.07770613 0.08653848
0.047766555 -0.051858015 -0.06011048 0.05577504 0.08893597 0.030028481 0.06251031 0.06571236
-0.074487835 -0.065604076 -0.100353494 -0.005293588 -0.05868686 0.06907547 -0.10076548 -0.076987736
0.07428525 -0.07588961 0.09138026 0.027551014 -0.12277515 -0.003699717 -0.07198563 -0.075612076
-0.010933864 -0.06068687 -0.053294495 -0.07664847 0.06591611 0.082997076 -0.106417164 -0.045653597
0.037448402 -0.037786238 0.033389524 0.033831194 0.050645463 -0.023947489 0.077716365 -0.033014223
-0.038684245 0.026427174 0.07881626 -0.098574646 0.040646695 -0.0027991561 0.07958855 0.035604067
0.03336269 -0.035774615 0.07204283 0.047955222 0.037789095 0.061438676 0.030779555 -0.04118066
0.036145054 -0.06825091 0.09379962 0.06637969 0.0037490171 0.054128155 -0.10653144 0.0022222162
-0.026899261 0.04607502 0.0915603 0.08401845 -0.09116242 -0.02297025 0.08097616 -0.034044176
0.060600586 0.074282065 -0.048041258 -0.030845158 0.040900808 -0.029320318 -0.06008504 -0.005978938
-0.031707786 -0.016048169 -0.03255966 -0.11396649 -0.013383185 -0.024762468 -0.056661986 -0.057017688
0.06508825 -0.014224738 -0.08407829 -0.07931454 0.07462866 -0.011849042 -0.0561077 -0.025891172
-0.02435822 -0.074890815 0.06751738 -0.11940939 0.03888693 0.019577526 0.0071901414 0.014286921
-0.05223305 0.050197843 -0.025076523 0.061339263 -0.044700705 -0.07982391 0.026792843 -0.06425406
-0.0772371 0.096973486 0.013441447 -0.005683774 -0.06437765 -0.07858802 0.0046102325 -0.05286196
0.08671261 -0.072570324 0.06491502 0.039871704 0.007981903 0.10058775 0.070053935 0.08187351
0.05246987 0.0060303058 0.0024898532 0.089845635 0.026108485 -0.08868502 0.009996879 0.014738858
-0.061213728 0.030752249 0.025644865 -0.045003586 0.043206953 -0.08901631 0.009407427 0.09595619
-0.03298133 0.09639408 -0.11846591 -0.11463706 0.005260188 0.026944494 -0.076577395 0.082229756
0.05232027 -0.02982746 -0.068951145 -0.010832618 -0.075222746 0.027014988 -0.027060542 -0.06636771
-0.08603376 0.0879192 -0.0029440545 -0.029780127 -0.07331031 -0.06284187 0.0015681072 0.09284099
0.052694764 -0.09706932 0.07080995 0.03785131 -0.067573555 -0.02624747 -0.043171942 -0.06290816
0.065982826 0.044516146 0.094382964 -0.024881456 -0.06616244 -0.077802144 -0.053645134 -0.0013643758
0.08480253 -0.050203323 0.06059857 -0.074300975 0.018156847 0.037596904 0.025029354 -0.035440158
0.0801843 -0.06156458 0.045023173 0.0059729507 -0.054223612 -0.034836058 -0.06560873 0.002923578
0.06585832 0.0005116529 0.02282599 -0.049602363 -0.085846074 0.021408882 0.09967586 0.03960148
-0.07224644 -0.028276049 -0.0976505 0.07944979 -0.044312704 0.0015137697 -0.04599487 0.03379126

conv3.bias f4 [64]
00000000: be01 0635 bb77 4c36 21da 95b6 010f 11b6
00000010: 9ac5 45b7 f141 4bb4 c2f1 e8b6 a792 1fb7
00000020: d089 7635 c8e3 5eb7 430c b136 b8b7 bd37
00000030: f8a0 4237 1195 ecb5 f412 e337 c81e 3eb8
00000040: 3801 1d36 5799 1336 2461 1635 a2ad cf36
00000050: cd33 1036 d565 e9b5 970b 93b6 2a63 d4b3
00000060: a774 8b37 6f10 e5b6 a297 f8b5 d90b 1e35
00000070: 7731 e4b5 98d5 3e37 3d1c fab5 b1d8 13b5
00000080: 2cc0 46b6 6661 f236 fae7 0135 a748 eb35
00000090: 563f 0738 48a9 8a35 5ce0 9535 b042 3636
000000a0: ee27 2235 e3bd 05b5 049a 1835 7203 b636
000000b0: 7372 0538 6672 32b6 3acd f735 433a 5ab6
000000c0: cf5f acb6 ce95 60b5 d0ba 12b7 8fca 0036
000000d0: 4e5f acb5 4329 9bb6 09ef 53b8 af0e 2838
000000e0: 15e5 b4b5 834d 7bb7 d34b acb7 1d20 3f36
000000f0: 538c 21b6 e208 4cb6 a48f 8437 a2ac 9db6
4.9921425e-07 3.0468061e-06 -4.4659396e-06 -2.1615417e-06 -1.1788123e-05 -1.8929838e-07 -6.942283e-06 -9.511284e-06
9.1842685e-07 -1.3285266e-05 5.2764385e-06 2.2616106e-05 1.16007795e-05 -1.7626754e-06 2.7069334e-05 -4.5328197e-05
2.3395532e-06 2.1993962e-06 5.602071e-07 6.1892943e-06 2.1487824e-06 -1.738949e-06 -4.3822906e-06 -9.890057e-08
1.6624412e-05 -6.826645e-06 -1.8521571e-06 5.887683e-07 -1.700172e-06 1.1374614e-05 -1.863467e-06 -5.5077095e-07
-2.9616158e-06 7.2235007e-06 4.8393815e-07 1.7530009e-06 3.2245494e-05 1.0331069e-06 1.1166662e-06 2.715893e-06
6.040781e-07 -4.982268e-07 5.6848535e-07 5.4244238e-06 3.181626e-05 -2.6590656e-06 1.8462663e-06 -3.2518444e-06
-5.137153e-06 -8.36645e-07 -8.745774e-06 1.919139e-06 -1.2842736e-06 -4.6241635e-06 -5.052894e-05 4.0067996e-05
-1.3477717e-06 -1.4978813e-05 -2.0539306e-05 2.847991e-06 -2.407255e-06 -3.040354e-06 1.5802514e-05 -4.6990617e-06

bn3.weight f4 [64]
00000000: 4f90 713f 7bbf 823f a3cb 813f 1ecc 833f
00000010: 4079 723f 6ffc 7f3f 0849 833f f887 803f
00000020: 7346 743f e66c 753f 2b6c 803f 3f34 813f
00000030: 56a8 763f 532b 783f 5acb 753f dc68 813f
00000040: 0215 753f d607 813f 7774 803f 94f1 743f
00000050: e098 803f 5712 803f c03e 833f 53c1 823f
00000060: 5bf3 823f 6d9b 823f 38db 763f 29a0 823f
00000070: 5d59 7f3f cd50 803f 7a91 803f ebd5 703f
00000080: 5cff 763f 3014 803f 0bb6 803f 42aa 7e3f
00000090: 6a47 7e3f 2682 7d3f e4f8 763f aa3d 803f
000000a0: b51b 823f 7db0 813f 6c11 813f b96b 843f
000000b0: f3ff 813f 179c 813f 4a90 833f 44c5 763f
000000c0: 6730 833f e9b3 7d3f c18e 7e3f 03e3 813f
000000d0: 7a09 823f 6c0b 823f 396f 733f dd83 743f
000000e0: db7c 7f3f 418c 7f3f 83ab 743f 69a4 733f
000000f0: d799 803f 8621 813f 651c 7e3f 9da6 783f
0.9436082 1.0214685 1.014027 1.0296667 0.9471626 0.9999456 1.0256662 1.0041494
0.95419997 0.9586929 1.003301 1.0094069 0.9635061 0.9694111 0.96013415 1.0110126
0.9573518 1.0080516 1.0035542 0.9568112 1.0046654 1.0005597 1.0253525 1.0215248
1.0230516 1.0203682 0.9642825 1.0205127 0.9974573 1.0024658 1.0044396 0.9407641
0.964834 1.0006161 1.0055555 0.9947854 0.9932772 0.99026716 0.96473527 1.0018818
1.0164706 1.0131985 1.0083442 1.0345374 1.0156235 1.012576 1.0278409 0.96394753
1.0249146 0.99102646 0.99436575 1.0147403 1.0159142 1.0159736 0.9509159 0.9551371
0.9979989 0.99823385 0.95574206 0.95172745 1.0046948 1.0088356 0.99262077 0.9712923

bn3.bias f4 [64]
00000000: 5fca 65bd 3898 b73a bf86 43bc 87d3 963c
00000010: 94b7 2ebd 69d7 27ba c8dd cb3c 8a0d d7bb
00000020: 1c09 3bbd 01d6 28bd e999 b1bb 0750 ad3b
00000030: 0c5f 41bd 26ae 1cbd 4d6d 1bbd e6cd dd3b
00000040: 58d6 2fbd 7f24 abbc 8e96 d4bc d16b 1bbd
00000050: c9b9 2bbc e1e9 c3bc 7ec6 3fbc fbf9 1cba
00000060: c0a3 183c f2d7 b5ba 0a47 12bd 2409 593b
00000070: 6315 00bd 5904 85bc 467d 83ba 3b85 7abd
00000080: b81a 03bd 77a6 17bd 7fc2 5a3c 34f9 63bb
00000090: 83e1 8fbc 0caa 64bc 3e15 26bd 3e91 83bc
000000a0: e9b0 053b 88ff 1ebc 4c4b fb3b d258 62bc
000000b0: a548 41bc 1673 59bb 4206 2fbc 2b85 1dbd
000000c0: b2dc 333c e6d3 853c 5429 f1bc 4ef0 983a
000000d0: b62c 363b c3ea e53b 8fdc 82bd d617 27bd
000000e0: 3c77 943a 76ff 1f3c 7315 39bd 57a6 2cbd
000000f0: 7e81 c53b 8d51 c73a cf0c 72bc d310 2fbd
-0.0561012 0.0014007157 -0.011933981 0.018411411 -0.042655542 -0.0006402643 0.024886027 -0.0065628933
-0.045662984 -0.041219715 -0.005419959 0.005289081 -0.047209784 -0.03825202 -0.037946034 0.00676893
-0.042929024 -0.020891426 -0.025950696 -0.03794462 -0.010481306 -0.023915233 -0.011705039 -0.0005988178
0.009316385 -0.0013873561 -0.03571228 0.003311702 -0.031270396 -0.016237425 -0.0010031841 -0.061162215
-0.032007903 -0.037023988 0.013352036 -0.0034785988 -0.017563587 -0.013956558 -0.040547602 -0.016060468
0.0020399636 -0.009704478 0.007668888 -0.013815122 -0.011797105 -0.0033180169 -0.010682644 -0.038457077
0.010977911 0.016336393 -0.029438652 0.0011668296 0.0027797646 0.007016511 -0.063897245 -0.040794216
0.0011327039 0.0097654965 -0.04518647 -0.04215082 0.0060273996 0.0015206799 -0.014773562 -0.042740654

bn3.running_mean f4 [64]
00000000: f541 1bbe e28c 8fbe ce07 f0bd b758 733e
00000010: debf 5cbf f913 063e 4c5d 723e 3ceb 203e
00000020: ecde 1dbd f043 bbbe 51d3 b33d ca2e 7b3c
00000030: 16b0 013d 04da 5ebf 97da 8a3e 0eca e23e
00000040: d5e8 50be 86c8 113d f7f1 6d3e ce3c 0cbf
00000050: 7a34 de3e 1b2f 9c3d 6c47 76be 43b4 3a3d
00000060: 1a88 75be 8c43 be3e 5fef f3bc 21ec 28be
00000070: e9c2 0a3e 8457 b53d 14e3 d33e 2da8 473e
00000080: c323 12be a551 e8be dbee 853e 79a2 ba3e
00000090: fdeb 5d3d bef9 d93d 5c47 74bd b4d0 94be
000000a0: 8a71 0f3f 61fd d73e 99f0 b43e d54b 8b3e
000000b0: b4f7 923e f6ff 93be d7f1 d1bc 924d 0ebf
000000c0: 7278 03be 2a87 943d 23e1 023e 0071 4fbe
000000d0: 98ce 633e 8ce3 353e 0e12 81be 81e6 56be
000000e0: fe5f 1e3f bd0d 18be 6419 3cbe de0e 2cbf
000000f0: d1e6 aa3e 8019 683f 2a1a 443e b6fe b1bd
-0.1516188 -0.28037173 -0.117202386 0.23764311 -0.86230266 0.13093556 0.23668402 0.15714735
-0.038542673 -0.3657527 0.0878054 0.01533098 0.03166207 -0.87051415 0.27119896 0.4429478
-0.20401318 0.035591625 0.23236834 -0.5478028 0.4339941 0.07626172 -0.24050683 0.045582067
-0.239777 0.3716091 -0.029777227 -0.16496326 0.13550915 0.08854583 0.41384184 0.19497748
-0.14271455 -0.4537479 0.26158795 0.36452082 0.054180134 0.10643338 -0.059638366 -0.29065478
0.5603262 0.421855 0.3533981 0.27206293 0.28704607 -0.2890622 -0.025628014 -0.5558711
-0.12838915 0.07252343 0.12781195 -0.2025795 0.22246778 0.17762583 -0.25209087 -0.20986368
0.6186522 -0.1484899 -0.18369061 -0.67210186 0.33379224 0.9066391 0.19150606 -0.086911604

bn3.running_var f4 [64]
00000000: 8212 383e 5d4f 823e b06f 583e be48 213e
00000010: 5d75 a03f b798 aa3e e37e 253e afbf fb3d
00000020: 0097 ca3e 94c7 963e 5d82 b03e b0b6 563e
00000030: 85f7 5a3e d741 b63e f885 893d d527 343f
00000040: 8553 0a3e 87fb b23e 72f6 df3e 4264 ac3f
00000050: c3ac cb3e e1f1 5c3e 6fe6 aa3d b3ad a83e
00000060: ca29 5f3e b9f5 9e3e 8d3b b33d 5c4b bd3d
00000070: 4d9d 303e 82a1 c23d 2ec9 7f3e 98fd 463e
00000080: 2313 fd3e 366a bd3d 8116 233f d21d 1c3e
00000090: 3582 853d 31c1 8b3e cc65 913e 7827 813e
000000a0: fc1f e83d 9ac0 433e 4bd4 873e 1b1e d53d
000000b0: b649 e83d 8cc4 443e 4f69 4b3e ffe2 013e
000000c0: 8a07 5d3e 5a6b 9a3e 52ee 4e3e 40de 363e
000000d0: 096e bd3e d7e0 6c3e 1c3b 893e 71c9 093f
000000e0: fa0a de3e c3ff 9c3e 864d fd3e f223 203f
000000f0: 8dff 853e 4634 3f3f 7515 f83d 864a b33d
0.1797581 0.25451174 0.21136355 0.15750405 1.2535816 0.33319637 0.16161685 0.1229242
0.3956833 0.2944914 0.3447446 0.20968127 0.21383484 0.35597107 0.06715006 0.7037328
0.13508423 0.34957525 0.4374271 1.3468096 0.39780244 0.21576644 0.08344733 0.32945022
0.21793285 0.31046847 0.08751593 0.09242889 0.17247505 0.095034614 0.24979088 0.19432676
0.49428663 0.09248774 0.63706213 0.1524575 0.06518976 0.2729583 0.28397977 0.25225425
0.113342255 0.1911644 0.26529154 0.10406133 0.11342184 0.19215602 0.19864391 0.12684248
0.21584907 0.30160028 0.202081 0.17858219 0.36998013 0.23132645 0.2680291 0.53823
0.4336775 0.3066388 0.49473208 0.6255485 0.26171532 0.7468914 0.121134676 0.087544486

fc1.weight f4 [64, 960]
00000000: 4ade f2bc e1c7 b1bc b063 b8bc b3d3 23bc
00000010: 0da4 11bd dbb2 a9bc 94d2 a03b 5ac4 693c
00000020: 01de 8ebc 596e 40bc a4f9 273c 553b e13b
00000030: 8af1 99bb bec0 ab3c d5a0 0a3c 195c 613c
00000040: dd1f be3b 14c2 b6bc 206a a4ba 6185 96bc
00000050: 8039 6f3c 336c bcbc 2fad cabc 93e9 853c
00000060: 68e7 5fbc 5290 22bc 9fc0 52bc ab8d 18bd
00000070: 2202 b5bc c07e ab3c ee91 0dbc 6c69 b43c
00000080: 62ff d0bc 6ab6 51bc 0b67 883c 0f58 bebc
00000090: 6a4a 2c3c a6ef 2ebb 28a7 bebc d770 d7bb
000000a0: 8b86 c6bc 950f abbc a984 2cbc bde8 14ba
000000b0: e7da debc 909b dcbc efdb 78bc b230 973b
000000c0: cb20 703c 54df 71bb 9e75 243a 2686 84bc
000000d0: 3e76 c1bc d5de a43b d945 21bc 025d 983a
000000e0: 761a e5bc 9ec7 c13b 734f b53c 104a 04bc
000000f0: c997 943c a4df c13c 3359 41bc 53ee 87bc
00000100: f105 3abc 97cd 103a 18df b43c 8466 b83b
00000110: aabe 283b a049 45bc f1ba 0c3c 613e 2ebc
00000120: 5f4d 8dbc a79f 80bb 4fe0 87bc e805 bcbc
00000130: 0b34 bbbc 1d7e bf3c c85d 0f3c bc6c 503a
00000140: 6653 4b3c baf4 56bc 5959 933c e988 603c
00000150: 9336 efbc 109d 9abb 0465 cb3c 6971 f8bb
00000160: 640d e2bc e8d7 cdbc 5e4b 9a3c d3ca 07bc
00000170: 8cd1 c1bb 7f1a d33b 3ff2 953c 2534 94ba
00000180: 0c28 1431 e2b4 743c 02f0 07bd 64ac ae3a
00000190: 72c1 873b d637 9abb 1c57 2b3c 0061 e9bc
000001a0: 737b 0cbb 5a96 c43a c26f 803c dbb7 3cbc
000001b0: 1284 8e3c 4cf0 0ebd 17c8 5abb ac8a 91ba
000001c0: 0f9e 15bc 2cb2 c6bc 9cc0 d5ba cc9b 293c
000001d0: c0bc 203c fc51 debc 845e 1abc b6cb 74bb
000001e0: c9c0 70bb b82f dc3b 1e74 9cbb 49c0 7b3c
000001f0: 7209 c33c ddb5 b83b 9479 bdbc 3850 01bd
00000200: 6d6a 11bd 108e 8fbc 39cf 303c cf4d 7a3c
00000210: 0773 03bd 92f0 07bd 1d45 b0bb 1d3b b5bc
00000220: 394c 10bd 3876 64bc e26b e9bc a780 0d3c
00000230: f799 b6bb 3d78 d1bc 1f27 a9ba 1bdc bebc
00000240: 1e71 163c fc9b 86bc 1b96 663c 768a 06bd
00000250: c323 0cbc 22aa d0bc b297 f3bc 4a55 c43c
00000260: e6ab ecbc 8e87 323c 0956 a63c adbb 02bd
00000270: 5445 04bd 1dfb 0d39 49a3 d13b b415 efbc
00000280: 3af4 8e3a 0395 ff3b 6ae4 8a3c e0c9 a1bc
00000290: 704e ae3c f2b2 d2bb 6773 86bc b1a3 93bb
000002a0: abaa 173c 8be4 3b3a fe3d 043c 8c9f 05ba
000002b0: 0ae9 f2bc c653 cfbc fc7c 8bbc db22 0cbc
000002c0: 6b18 a6bb 84ea 7ebb 6f9d 833c 73ca 1d3b
000002d0: cd52 e73a 9023 e43b aaa4 c1bc 48d3 74ba
000002e0: 74c6 c6bb d90c 44bc 2dcb 1cba 5cf2 09bd
000002f0: 5e4b 69bc 7f89 9f3b d29f 95bc 504a a5ba
00000300: 586f c6bc a140 cebc f375 c83b 02fa 46bc
00000310: f23c 4ebb e607 3fbc c3a2 de3b d059 25bc
00000320: 6fa3 acbb b18f a1bc 9e9f e2bc 3d20 c53c
00000330: 38e1 ba3c 4bac 4a3c 2e82 74bc 4fbe c2bc
00000340: 9821 c43b 738f 1ebb 5dcc 81bc 7004 14bd
00000350: 8587 e4bc 2398 d4bc 6e5d dcbc b930 f6bc
00000360: d140 b4bc fe6b 76bc 577f 313b 7040 a3bc
00000370: 8b6e 5e3c 216b 813c 1e58 813c 0761 2f3c
00000380: 015c a5bc dbc0 c2bc b1d8 04bd 2cfc d8bc
00000390: 02c1 f8bb 5742 1a3c 5981 efbc e484 f93b
000003a0: a111 96bc a736 b2bc 0561 2839 6d48 95bc
000003b0: c2e1 09bc 4ac1 e3bc 6a7b 203c fa1f 34bb
000003c0: a4f9 483c 0160 533c 2c42 b6bc 7bba 3abc
000003d0: ff14 493c 7043 6fbc 81fb 10bc 7a0d efbc
000003e0: 4687 86bc f505 e8bb 109b fa3b 8918 95bc
000003f0: 2151 af3c 9bb5 b2bc 3a86 c73b 970a 453b
-0.029647011 -0.021701755 -0.022508472 -0.0099992035 -0.03555684 -0.020715168 0.0049079154 0.014268005
-0.017439844 -0.011745059 0.01025239 0.006873528 -0.004697983 0.02096593 0.008461197 0.013754868
0.0058021382 -0.02230934 -0.0012543835 -0.018374147 0.014601111 -0.023000812 -0.024740783 0.016346728
-0.013666011 -0.009922104 -0.012863307 -0.03724448 -0.022095744 0.020934463 -0.008640749 0.022022925
-0.025512401 -0.012799839 0.016650697 -0.023235349 0.010515789 -0.0026693135 -0.023273066 -0.006574731
-0.024234077 -0.020881454 -0.0105296755 -0.00056804327 -0.02720399 -0.026929647 -0.015189155 0.004613959
0.014656256 -0.0036906796 0.000627363 -0.016177248 -0.023615953 0.0050314465 -0.009843313 0.0011624398
-0.02796672 0.005913689 0.02213261 -0.0080742985 0.018138783 0.02366621 -0.011801052 -0.016593134
-0.011353956 0.00055237993 0.022079036 0.005627455 0.002574841 -0.012041479 0.008589492 -0.0106349895
-0.017248807 -0.003925282 -0.01658645 -0.022952035 -0.022851964 0.023375565 0.008750387 0.0007950773
0.01241002 -0.013119871 0.01798694 0.013704517 -0.029200828 -0.0047184303 0.024828441 -0.007581879
-0.027594276 -0.025127366 0.018834766 -0.008288103 -0.0059148725 0.0064423676 0.018303989 -0.0011307044
2.1559599e-09 0.014935704 -0.033187874 0.0013326523 0.0041429335 -0.004706363 0.01045778 -0.028488636
-0.0021435886 0.0014998422 0.01567829 -0.011518444 0.01739696 -0.034897134 -0.0033383423 -0.001110395
-0.009131922 -0.02425488 -0.0016308012 0.010352086 0.0098106265 -0.027138703 -0.009421948 -0.0037352866
-0.0036736003 0.0067195557 -0.0047745844 0.015365669 0.023808215 0.005636914 -0.023129262 -0.031570643
-0.035501886 -0.017523795 0.010791593 0.01527734 -0.03209212 -0.03318841 -0.0053793327 -0.022122914
-0.03522894 -0.013944201 -0.028493825 0.00863663 -0.0055725533 -0.02557003 -0.0012905336 -0.023298314
0.009182243 -0.016431801 0.014073874 -0.03284689 -0.008553448 -0.02547175 -0.02973542 0.02396645
-0.028890561 0.010896577 0.020304697 -0.031917263 -0.03229268 0.00013540355 0.006397639 -0.029185154
0.0010906525 0.007799746 0.01695462 -0.019749582 0.021277636 -0.0064300233 -0.01641245 -0.0045055975
0.009256999 0.00071675394 0.008071421 -0.00050973217 -0.029652137 -0.025308501 -0.01702737 -0.008553232
-0.005068829 -0.0038897106 0.016066281 0.0024076968 0.0017648578 0.006962247 -0.023638088 -0.00093393447
-0.006066138 -0.011965954 -0.0005981203 -0.033678398 -0.01423916 0.0048686857 -0.018264685 -0.0012610648
-0.024223015 -0.025177302 0.0061175763 -0.012144567 -0.0031469432 -0.011659598 0.006794305 -0.010092214
-0.0052685062 -0.019721838 -0.027664002 0.024063224 0.02281247 0.012370179 -0.014923615 -0.023772387
0.00598545 -0.002419439 -0.015844518 -0.036137044 -0.027896652 -0.02595145 -0.02690002 -0.03005253
-0.022003563 -0.015040396 0.0027083957 -0.019928187 0.01357616 0.015798153 0.015789088 0.010704285
-0.020185472 -0.023773601 -0.032433216 -0.026487432 -0.0075913677 0.009415231 -0.029236482 0.0076147188
-0.018318953 -0.021754576 0.00016057871 -0.018223012 -0.008415641 -0.027802128 0.009795049 -0.002748488
0.01226655 0.012901307 -0.02224835 -0.0113969995 0.012273072 -0.014603481 -0.008849026 -0.02918123
-0.016421925 -0.0070807883 0.0076478794 -0.018200176 0.02140099 -0.021815112 0.006088999 0.0030066126

fc1.bias f4 [64]
00000000: 9578 a83c 4d3d 5dba 2d3e 0bba 36fa 9fbc
00000010: df89 893b 643d a43c 67dc 683c e42f 403c
00000020: ad18 d7bb 9b27 b4bc a5af 84bc 8f9e 9dbc
00000030: 19ce 03bd 3cba 693c c529 8f3c b89b b73a
00000040: 5ce3 a3bc 70c8 d73c c65a 103c 9ff8 4bbc
00000050: d55f 6fbc 3cb3 6b3c c342 84bc 90eb ccbb
00000060: 0480 6f3b 5a1d dd3b 2d71 d1bc 083d 623c
00000070: fc0a 92bc b38a 8e3c 4132 613c 46e1 103c
00000080: 1039 2abc a2da 9dbc 3a46 13bc 03a9 dabc
00000090: 0c3d 77bc 50a6 b43c 755c 6a3b 1b6c a5bc
000000a0: e450 70bb 0e69 c8bc 52ef 243c c93f f93c
000000b0: 23e9 f8bb ca17 db3a 8347 8c3a 1231 cdbc
000000c0: c5a6 cebb 6af3 9d3c 021e 923c d6c0 e4bc
000000d0: 1c9d 213c 2e97 70ba 8dfc a2bc 2e37 fbbb
000000e0: 48ea efbb 281f cdbc 0c83 7a3c d939 e2bc
000000f0: 7415 613c 5aa4 c7ba 837e ae3c 2ff0 e43a
0.02056531 -0.00084396155 -0.0005311694 -0.01952849 0.0041973437 0.020048805 0.014212704 0.011730168
-0.006564221 -0.021991542 -0.016197035 -0.019240646 -0.032178972 0.014265593 0.017475972 0.00140082
-0.020005874 0.026340693 0.008810705 -0.012449413 -0.0146102505 0.0143859945 -0.016145116 -0.006253667
0.003654481 0.0067478837 -0.025566662 0.013808496 -0.017827503 0.017400121 0.013744892 0.008842772
-0.010389581 -0.019269291 -0.008988911 -0.02669192 -0.015090238 0.02205196 0.0035760675 -0.02019315
-0.0036669308 -0.024464156 0.010066824 0.030425923 -0.0075961514 0.0016715464 0.0010702464 -0.025047813
-0.0063065016 0.019281108 0.017836574 -0.027923983 0.009864118 -0.0009177801 -0.019895816 -0.00766649
-0.0073216297 -0.02503927 0.015290033 -0.027615475 0.013738025 -0.0015231476 0.02130056 0.00174666

fc2.weight f4 [10, 64]
00000000: b4a2 0abc 592f 34bd ab0d 01be 4215 cebd
00000010: 9104 a73d 5433 babd 623d c93c 3f21 903d
00000020: 4f03 bdbd cd97 8b3d 54ab 943d cbf6 573b
00000030: 7fa3 c7bd d13f 373d d0cd d3bd c0ba d43d
00000040: 04cc f93c b354 b2bd face 793c ba68 5638
00000050: 1f7a d6bd 4048 c4bd bf92 83bd 8d4e fabd
00000060: ed11 743d 907c 273d 4755 033c 24fd 4a3d
00000070: d098 983d ec65 b1bd 8407 83bd 6b30 c43b
00000080: eed7 783d 648b c5bc caab 443d c3bc 573d
00000090: 20c0 743d 84e9 e0bb 0b73 d7bd 796f d4bd
000000a0: e5b7 3b3d 8a07 6c3d 9cb5 d03d 1b29 cd3d
000000b0: fa33 1abb 4c1e d43d ab43 8d3d 9d01 d7bd
000000c0: 73e6 66bd 8345 d13d 25e3 eabd 7489 b13d
000000d0: e940 27be a0d6 d8bd 6bfe efbd 4635 ae3d
000000e0: 3dac 163d b0a7 303c 8397 d7bd 0c01 4fbd
000000f0: 8a8b d33d 596b 58bb b93e ac3d 84da ae3d
00000100: 2088 acbd 2982 bbbd e42b aebb 034d 7f3c
00000110: 1e8d 75bd d53a cebd 9b38 fc3b 7fa6 14be
00000120: 351b 87bc e9fc ca3d 2d33 71bb 5ceb b83d
00000130: 5ace 99bc 45a6 80bd d300 ef3c f175 8abd
00000140: 590f 973d 500f f6bd 7785 963d 27f8 813b
00000150: 347f 983d fe82 283d d6fd c03d f804 78bd
00000160: 2799 933d 93ec bebc 9520 1dbe d542 03be
00000170: 55e4 ae3d 6624 603d b114 983d 9988 673c
00000180: b13f 993c 0841 dfbc 0d50 80bd 1f7b 9fbd
00000190: 1de5 f6bd 617e 33be 48e2 a5bd c67b e6bd
000001a0: b02c 1dbd 6412 e8bd a5af 51bd a845 31bd
000001b0: af56 d63c 13b6 49bb fc65 63bd bcbf 803c
000001c0: 52c5 c2bd 530e dabd c95c f83d 5e7b 0bbd
000001d0: 259b be3d 303b 883d 221b 9d3d fe1e f9bd
000001e0: 70fa c4bc e61f 7f3d f2a7 67bd ef60 2bbe
000001f0: e983 f6bc 9968 c13a c4d2 c7bd 355f 1c3d
00000200: ed23 983d deee b5bd 3d96 433d d80a 9bbd
00000210: 9409 aebd 061d 87bd 8f10 99bd c1b9 0bbc
00000220: d377 9f3d c107 7dbd be9c 42bd 6d49 13be
00000230: 4d00 593d cdb6 11be bb19 bebd 00a9 b5ba
00000240: eebd e2bd 1793 bd3d faf2 d23d acf0 25ba
00000250: 6b6d 19be e174 14bd 4a3e ffbd d8fa ef3d
00000260: 613f 003d 99f8 51bd ec6b 94bd 3f41 e23d
00000270: 1b7d 5a3d bda1 2cbd a969 4bbd 300a 9fbd
00000280: 6a25 1abe de32 31be b99d 823d a7c3 bd3d
00000290: 215b f63d 413b bf3d adae e8bd 7e4b 11bd
000002a0: d08b 31bd 491b fcbd 5d67 f7bd c437 8a3d
000002b0: b6df c3bd fa63 41bc dda4 a0bd 6615 553d
000002c0: 2a22 b73d 092e 0e3d 287b 0bbe a149 233c
000002d0: 3ab1 9b3d 7ea7 91bd 1c1f e73c 6861 81bc
000002e0: 48a2 0d3d 9501 1c3d bac2 c1bb 23bd a8bd
000002f0: 11ff aabd 750e 0c3d 882c 35bc fd0e 10bd
00000300: e4c3 bcbd 6175 093d e2a5 913d 1aff cdbd
00000310: ac75 e33d 7db0 ba3d 9cde d83d 59df 7fbd
00000320: e5ee fd38 244c 69bd a532 f33b 2dfd 6b3d
00000330: ea59 dfbd 4da2 b73b e4ef 903d 8238 0fbd
00000340: 8ec2 0bbe 284f 2ebe c724 763d 8bf9 45bc
00000350: daaa 983d 7607 1ebd 547e 32be 4d2c 01bd
00000360: 826f e23d 0ed1 3abd 667a de3d 606c 15be
00000370: 2112 e2ba 69ac bbbd bab6 463d 7a77 2abe
00000380: 711a 773d df43 a43d 5c59 873d fc14 283d
00000390: d0ca cdbd b301 0abd 0d5a b3bc ce81 ea3c
000003a0: c22a 43bc 29d3 8bbd c35b ea3c deee 05be
000003b0: ac8d 36bb b51e 1d3d 922e 253d 7ba8 a1bd
000003c0: b12f b63d 941c 06be 2e93 8e3b 4deb 3abd
000003d0: df14 1bbe d545 f4bd 5326 32bd 750e 873d
000003e0: 00c7 6c3d 64d2 d3bd 6301 0b3d 63a6 023d
000003f0: c1c1 9f3b 282f 713c cd1a 52bd 073a 413d
-0.008461643 -0.043990467 -0.1260287 -0.10062648 0.08155168 -0.09091821 0.024565402 0.07037591
-0.09229147 0.06816063 0.07259241 0.0032953497 -0.09747981 0.044738594 -0.1034199 0.10387182
0.03049279 -0.08707561 0.015247101 5.111911e-05 -0.104725115 -0.09584093 -0.06424474 -0.122220136
0.059587408 0.040890276 0.008015937 0.04955782 0.07451022 -0.08662018 -0.06397918 0.005987217
0.0607528 -0.024114318 0.048015393 0.05267025 0.059753537 -0.0068637747 -0.105199896 -0.10372824
0.045829672 0.057624377 0.10190889 0.10017606 -0.0023529516 0.10357341 0.06897672 -0.104983546
-0.056372117 0.102183364 -0.11469106 0.08668795 -0.16333355 -0.105878115 -0.11718448 0.08506255
0.036785353 0.010782167 -0.105269454 -0.050538108 0.10329349 -0.0033022969 0.08410401 0.08537772
-0.08424401 -0.091556855 -0.0053152908 0.015582326 -0.059949033 -0.10069815 0.0076971776 -0.14516638
-0.016492466 0.0991152 -0.0036804185 0.09029266 -0.018775154 -0.062817134 0.029175198 -0.06760777
0.07375974 -0.120146394 0.07349675 0.0039663496 0.07446137 0.04114055 0.09423415 -0.060551614
0.07206946 -0.023306167 -0.1534446 -0.12818463 0.08539645 0.054722212 0.074258216 0.0141316885
0.018707128 -0.027252689 -0.062652685 -0.07787155 -0.12055419 -0.17528678 -0.080998 -0.11254077
-0.038372695 -0.11331633 -0.0511929 -0.04327932 0.02616438 -0.003077869 -0.05551718 0.015716426
-0.09510292 -0.106472634 0.12127072 -0.0340532 0.09306935 0.06651914 0.07671191 -0.121641144
-0.0240452 0.06228628 -0.05655665 -0.16736196 -0.030092197 0.0014755904 -0.09756997 0.038176734
0.07428727 -0.08883451 0.0477507 -0.07570428 -0.08497921 -0.06597333 -0.074738614 -0.008528174
0.077865265 -0.061774973 -0.047512762 -0.14383478 0.052978802 -0.14229889 -0.092822514 -0.001385957
-0.110713825 0.09256571 0.1030025 -0.00063301134 -0.14983146 -0.036244277 -0.124630526 0.117177665
0.031310443 -0.05126247 -0.07247147 0.11047601 0.053341966 -0.042146433 -0.049661312 -0.07765615
-0.15053335 -0.1730456 0.063777395 0.09265833 0.120291 0.09337474 -0.11361442 -0.035472386
-0.043346226 -0.12309892 -0.12080262 0.06748918 -0.09564154 -0.011803621 -0.07843945 0.05202236
0.08942063 0.03471187 -0.13621199 0.009966285 0.07602163 -0.07112025 0.028213076 -0.015793517
0.03457859 0.038087446 -0.005913106 -0.082392 -0.08349431 0.034193475 -0.01105798 -0.035170544
-0.09217051 0.033559207 0.07111718 -0.100584224 0.111064285 0.09115694 0.10589334 -0.06246886
0.00012108478 -0.05695738 0.007421809 0.057614494 -0.109058216 0.0056040646 0.070770055 -0.034966
-0.13648435 -0.17022383 0.060093667 -0.012083421 0.07454462 -0.038581334 -0.17431003 -0.03153639
0.11056425 -0.045609526 0.108631894 -0.14592123 -0.0017247834 -0.09163744 0.048514105 -0.16647139
0.06032795 0.08020758 0.06608841 0.041035637 -0.10048449 -0.033693027 -0.021893525 0.028626349
-0.01191205 -0.06827385 0.028608209 -0.13079402 -0.002785544 0.038359363 0.040327616 -0.07893463
0.08895815 -0.13096839 0.0043510413 -0.045634557 -0.1514468 -0.11927382 -0.04349358 0.06594554
0.05780697 -0.10342863 0.03393687 0.03189696 0.004875392 0.014720716 -0.05129509 0.04717448

fc2.bias f4 [10]
00000000: 3ecd 05bd 4650 053e ca56 9a3d 2639 cebd
00000010: fe68 10be 862f 8ebc 6b3a d23d 6309 88bb
00000020: 885e 493d e409 61bc
-0.032666437 0.13018903 0.07536085 -0.10069494 -0.14102551 -0.017356645 0.102650486 -0.0041515096
0.049162418 -0.013735268
