results/rruff_families/models/family_cnn.pth (torch, 329781 bytes, 52 tensors)

conv_in.weight f4 [32, 1, 7]
0	0x3e8543ac	0.26028192
1	0x3e0d1e07	0.13780986
2	0xbd947c30	-0.072502494
3	0x3e92cf90	0.28673983
4	0xbdeb49b2	-0.11488666
5	0x3c93b2f9	0.018029677
6	0xbe797cd1	-0.2436402
7	0x3cf52d5f	0.029928861
8	0x3daf7100	0.08566475
9	0xbe9511c8	-0.2911513
10	0x3e29a2cf	0.16566013
11	0x3e2ff8fc	0.17184824
12	0x3ea9e2bb	0.33180794
13	0x3e19947e	0.14998052
14	0x3e79b8b4	0.24386865
15	0x3d130f7b	0.035903435
16	0x3e9897ac	0.29803216
17	0x3ce49865	0.027904699
18	0xbe5950db	-0.2122225
19	0x3d3e1f52	0.046416588
20	0xbe464b28	-0.19364607
21	0x3d46f734	0.048575595
22	0xbd849eba	-0.06475587
23	0x3e927617	0.2860572
24	0xbdb20f57	-0.08694332
25	0xbe279bf0	-0.16368079
26	0xbe4a7f8c	-0.19775218
27	0xbe9ef60e	-0.310471
28	0xbd89df76	-0.06732075
29	0xbee20be1	-0.44149688
30	0x3ea6ecce	0.32602543
31	0xbe9671cb	-0.29383692
32	0x3ea6746b	0.32510695
33	0x3dc267e1	0.094924696
34	0xbdb72433	-0.08942451
35	0x3e84033b	0.25783715
36	0x3e077ee9	0.13232006
37	0x3e835ac2	0.2565518
38	0x3d51f99b	0.051263433
39	0xbdc7c25e	-0.097538695
40	0x3daf1ef2	0.08550824
41	0xbdab16a3	-0.08353927
42	0x3da356c2	0.07975532
43	0x3e1c0051	0.15234496
44	0x3d56bf5b	0.052428585
45	0xbd9fde83	-0.078061126
46	0x3e480ebb	0.19536869
47	0x3dfb2edf	0.12264799
48	0x3e668b30	0.22514033
49	0xbe86f1a9	-0.26356247
50	0xbebd22d8	-0.36940646
51	0xbe096fad	-0.13421507
52	0xbe88cfd2	-0.26721054
53	0x3ea3170c	0.3185352
54	0x3e07ee4e	0.132745
55	0x3e4ddb01	0.20103075
56	0x3e18b07c	0.14911073
57	0x3bd537fb	0.0065069175
58	0x3e94167c	0.28923404
59	0xbe944d5c	-0.2896527
60	0xbcc1bd81	-0.023649933
61	0xbea066bc	-0.3132838
62	0x3d64cff2	0.055862375
63	0xbd798f3c	-0.060927615
64	0x3e38fda7	0.1806551
65	0xbbcd6c9d	-0.006269051
66	0x3ec34ec2	0.38146025
67	0xbe318815	-0.17337067
68	0xbe3c132e	-0.18366691
69	0xbe698ebd	-0.22808357
70	0x3ed16cd1	0.40903333
71	0x3e3b1bcc	0.18272322
72	0x3ed00823	0.40631208
73	0xbe82311c	-0.25428092
74	0xbea85fd6	-0.32885617
75	0xbe83e3e4	-0.25759804
76	0xbe6a7c20	-0.22898912
77	0x3e3bc27f	0.18335913
78	0x3e0efb0e	0.13962957
79	0x3e8e4c59	0.27792624
80	0xbe6a1fb9	-0.22863664
81	0xbea23f17	-0.3168876
82	0x3e023cf2	0.12718561
83	0xbe3ffd28	-0.18748915
84	0x3e8273b7	0.25478908
85	0xbd9cb32d	-0.076513626
86	0x3e50d7c9	0.20394816
87	0xbea850c9	-0.32874134
88	0xbe751425	-0.23933466
89	0x3d5b5e77	0.053556886
90	0x3bc6f089	0.0060711545
91	0x3d844929	0.06459267
92	0x3ea12633	0.31474456
93	0x3e97436f	0.29543635
94	0xbe6ef1fa	-0.23334494
95	0xbe66eacd	-0.22550507
96	0x3e868208	0.2627108
97	0xbe446ccb	-0.19182126
98	0xbe9dde7f	-0.30833814
99	0xbea07644	-0.3134023
100	0xbddd0810	-0.107925534
101	0x3e18f9b1	0.14939
102	0x3d53b798	0.05168876
103	0xbe0d2411	-0.1378329
104	0x3da7f68f	0.08201324
105	0xbe858153	-0.2607523
106	0xbe5530f3	-0.20819454
107	0xbdc190e2	-0.09451462
108	0xbe59f899	-0.21286239
109	0xbe176bd5	-0.14787228
110	0x3edaba96	0.4272048
111	0x3e1feba4	0.15617234
112	0x3e777a26	0.2416769
113	0xbdf42d8e	-0.11922751
114	0xbd4484d1	-0.047978226
115	0xbd14a0fb	-0.036286335
116	0xbdcd9a73	-0.100392245
117	0xbe8ee402	-0.2790833
118	0xbe33314d	-0.17499276
119	0xbe6be927	-0.2303816
120	0xbdf95ba7	-0.121756844
121	0xbda1ef61	-0.07906986
122	0xbb82807f	-0.003982603
123	0xbd4e5427	-0.050373223
124	0xbd928a5f	-0.071552984
125	0xbd1b9f45	-0.037993688
126	0xbdff8204	-0.124759704
127	0xbe9c02f0	-0.3047099
128	0x3ea58e3f	0.32335088
129	0xbd4d2c5a	-0.050091125
130	0x3eac4fb5	0.33654562
131	0x3dc95493	0.098305844
132	0xbec08076	-0.37598008
133	0x3ea5bfa4	0.32372773
134	0xbc37cc12	-0.011218088
135	0xbd311d69	-0.04324094
136	0xbe407b21	-0.1879697
137	0xbea16df5	-0.31529203
138	0x3d0e9594	0.034810618
139	0xbdf9affe	-0.12191771
140	0x3da870f6	0.082246706
141	0xbebeb1c6	-0.37245005
142	0x3e670b83	0.22562985
143	0xbe9de766	-0.30840605
144	0xbd987ab2	-0.07445277
145	0x3db9d9fe	0.09074782
146	0x3e677d2b	0.22606342
147	0x3ea27339	0.31728533
148	0x3eaf5014	0.34240782
149	0xbe9bd064	-0.30432427
150	0x3daf2633	0.08552208
151	0xbe3b9b0f	-0.18320869
152	0xbd90e967	-0.07075768
153	0xbea894a1	-0.32925895
154	0x3e6e239d	0.23255773
155	0xbe72ccd8	-0.23710954
156	0x3e2b2e88	0.16716969
157	0x3de8da0b	0.113697134
158	0x3e0d0ec8	0.1377517
159	0xbce2483e	-0.027622338
160	0x3eb7d041	0.35901073
161	0xbaec361e	-0.0018021499
162	0xbcfb9991	-0.030712875
163	0xbec4fbd8	-0.38473392
164	0x3e009077	0.12555109
165	0xbd876e0b	-0.06612786
166	0xbe2abea3	-0.16674285
167	0x3ead3934	0.33832705
168	0xbdc5955c	-0.09647629
169	0xbe753ab6	-0.23948178
170	0xbe43b8b8	-0.19113433
171	0xbdb12c5c	-0.08651039
172	0x3dfca48a	0.12336071
173	0xbd5b4019	-0.053527925
174	0xbd9aba5c	-0.075550765
175	0xbe4885fe	-0.19582364
176	0xbea42799	-0.3206146
177	0x3ddb3359	0.10703153
178	0x3e8de41e	0.27713102
179	0xbeb3988d	-0.35077325
180	0x3dda0c44	0.10646871
181	0x3e71f302	0.23627856
182	0x3dcbd234	0.099522024
183	0xbd0dd223	-0.03462423
184	0x3e3c3aff	0.1838188
185	0x3e0b48d7	0.13602005
186	0x3de5873c	0.112074345
187	0xbe130674	-0.1435793
188	0xbe353352	-0.17695358
189	0x3d5e7efd	0.054320324
190	0xbd4da9be	-0.050210707
191	0xbddbe2b5	-0.107366
192	0x3e2b4e49	0.16729082
193	0x3e5bc1af	0.21460603
194	0xbe3c3d91	-0.1838286
195	0xbe7f1064	-0.24908596
196	0xbb1619bb	-0.002290352
197	0xbd1c36df	-0.038138267
198	0x3d975f5b	0.073912345
199	0x3dc96068	0.09832841
200	0xbeadcff3	-0.33947715
201	0xbdd31788	-0.103072226
202	0x3ec95a94	0.39326918
203	0x3d9e158e	0.07718955
204	0xbd57cc34	-0.052684978
205	0xbe51cb22	-0.20487645
206	0xbe6ae1bc	-0.22937673
207	0xbe6bb3a3	-0.23017745
208	0xbd8ac9d2	-0.067767754
209	0x3e200efb	0.15630715
210	0x3e94af2b	0.29039893
211	0x3e34ff9a	0.1767563
212	0xbeb7ca22	-0.35896403
213	0xbe886d56	-0.26645917
214	0xbdbeb9d6	-0.09312789
215	0x3ea63848	0.32464814
216	0x3c4bc381	0.0124367485
217	0xbdbfd307	-0.09366422
218	0x3d6fe0d5	0.058564026
219	0xbe16fdcf	-0.14745258
220	0xbe51974f	-0.20467876
221	0x3d3ebd2a	0.04656712
222	0xbe09e07e	-0.13464543
223	0xbc226128	-0.009910859

conv_in.bias f4 [32]
0	0xbb3b0f30	-0.0028542988
1	0x39b58f25	0.0003462966
2	0x3b34b4bb	0.0027573544
3	0x3cb427cd	0.021991635
4	0xbc654529	-0.01399354
5	0x3af9eb04	0.0019067232
6	0x3a1c67c4	0.000596639
7	0xbd67cb4f	-0.056590375
8	0xb9931942	-0.00028056843
9	0x3c875a94	0.016522683
10	0x3d5f4b27	0.05451503
11	0x3a8dd5b7	0.0010821138
12	0xbcf114f3	-0.029428935
13	0x3b562ced	0.0032680586
14	0x3c0f2b59	0.008738362
15	0xba35efc2	-0.0006940329
16	0x3bf6a0a4	0.007526474
17	0xbb0f8aef	-0.002190288
18	0xbb4e3964	-0.0031467313
19	0xbcd68792	-0.026187692
20	0xbc9ef6a0	-0.01940471
21	0xbc8ef0c4	-0.01744879
22	0xbadfabf7	-0.0017064799
23	0x3c1a6082	0.009422423
24	0x3b2cf46b	0.0026390802
25	0xbd4dc282	-0.050234325
26	0xbabacedc	-0.0014252323
27	0xbc73543a	-0.014851624
28	0xba89ce7a	-0.0010513805
29	0x38d2f7b6	0.0001005972
30	0xbc1e4fc5	-0.009662573
31	0xbc12ad62	-0.0089524705

bn_in.weight f4 [32]
0	0x3f4f6984	0.8102038
1	0x3f4db3a1	0.80352217
2	0x3f460585	0.7735217
3	0x3f6b2329	0.91850525
4	0x3f751c6c	0.95746493
5	0x3f43897a	0.7638165
6	0x3f37f593	0.7185909
7	0x3f89fbfd	1.0780026
8	0x3f818080	1.011734
9	0x3f7b3d36	0.98140275
10	0x3f908f48	1.1293726
11	0x3f372325	0.71538
12	0x3f68d19b	0.9094483
13	0x3f227c34	0.6347077
14	0x3f666adf	0.9000682
15	0x3f85abf4	1.0443101
16	0x3f4ddaf6	0.8041223
17	0x3f4ac8a7	0.7921242
18	0x3f9471b0	1.1597195
19	0x3f4eb5fb	0.8074643
20	0x3f757341	0.9587899
21	0x3fa18db9	1.2621375
22	0x3f339a56	0.7015737
23	0x3f64d80d	0.8939217
24	0x3f3a3a23	0.7274496
25	0x3f9770d2	1.1831305
26	0x3f502aea	0.8131548
27	0x3f4a1f79	0.78954273
28	0x3f4b4d9a	0.79415286
29	0x3f583630	0.84457684
30	0x3f5f38cc	0.8719604
31	0x3f36e530	0.7144346

bn_in.bias f4 [32]
0	0xbc5f98a7	-0.013647235
1	0xbd9bd5da	-0.07609148
2	0xbe6a0588	-0.22853673
3	0xbd9adb04	-0.07561305
4	0x3db0c261	0.08630825
5	0xbd904f2a	-0.07046349
6	0xbe8a93b1	-0.27065805
7	0xbdb08266	-0.086186215
8	0x3d87b199	0.06625671
9	0xbc8daec7	-0.017295254
10	0x3db3e771	0.08784378
11	0xbe4bd594	-0.19905692
12	0x3da6395d	0.0811641
13	0xbcb8ecf3	-0.022573924
14	0x3d9fb05b	0.07797309
15	0x3e124051	0.14282347
16	0xbd32f11b	-0.043686967
17	0x3da2d6f6	0.07951157
18	0x3d9c1776	0.07621662
19	0xbd07074d	-0.032965947
20	0x3dadd179	0.08487219
21	0x3dc87d05	0.097894706
22	0xbe9d3590	-0.30704927
23	0xbc2a0b6c	-0.0103787
24	0xbbc4c137	-0.0060044783
25	0x3cb11c43	0.021619922
26	0xbde1235c	-0.109930724
27	0xbe1c7ba8	-0.15281546
28	0x3d1cf84a	0.038322724
29	0x3da71f6f	0.08160292
30	0xbe17fa48	-0.14841568
31	0xbb648a12	-0.0034872335

bn_in.running_mean f4 [32]
0	0x3cfa0ad0	0.030522734
1	0x3d9e68e5	0.07734851
2	0x3cff8d8b	0.031195423
3	0xbd0be715	-0.034155924
4	0xbce3cf8d	-0.027808929
5	0x3d998511	0.074960835
6	0x3db53cee	0.08849512
7	0xbdd1c24a	-0.10242136
8	0xbc7af487	-0.015317089
9	0x3ba053a4	0.0048927832
10	0x3d369ce6	0.044583224
11	0x3b1e2118	0.0024128612
12	0xbd324c52	-0.043529816
13	0x3d124a69	0.035715494
14	0xbd73ecc1	-0.059551958
15	0xbd308cd2	-0.043103047
16	0xbd642271	-0.05569691
17	0xbd9292f5	-0.07156936
18	0xbc81298b	-0.01576688
19	0xbd87e1de	-0.066348776
20	0xbd18f561	-0.037343387
21	0xbd0fa6da	-0.03507123
22	0x3db04056	0.08606021
23	0xbc60886e	-0.013704402
24	0xbd90e476	-0.070748255
25	0xbd8b0842	-0.067886844
26	0x3c950232	0.018189523
27	0xbd0a33f8	-0.033740968
28	0x3c2595f0	0.010106549
29	0xbd873e02	-0.06603624
30	0x3ba84294	0.00513489
31	0xbd84af87	-0.06478792

bn_in.running_var f4 [32]
0	0x3b5fa7a8	0.003412703
1	0x3c54eed5	0.012996395
2	0x3b391314	0.0028240131
3	0x3c076341	0.00826341
4	0x3a79a08a	0.00095225184
5	0x3c451bd2	0.012030559
6	0x3c8b51e6	0.017006826
7	0x3be28a45	0.0069134557
8	0x3a8f9c1a	0.0010956556
9	0x3a832cda	0.0010007874
10	0x3b79512b	0.0038042765
11	0x3a686601	0.00088652974
12	0x3a6f564e	0.0009129987
13	0x3b4e16f8	0.0031446796
14	0x3c313291	0.010815279
15	0x3bb4ce04	0.005517723
16	0x3c1510c5	0.009098236
17	0x3c2fa8d3	0.010721403
18	0x3a1b1817	0.00059163704
19	0x3b8e3377	0.004339631
20	0x3a872dd7	0.0010313344
21	0x3b1caa1d	0.0023905106
22	0x3c8b14b5	0.016977647
23	0x3acb8102	0.0015526118
24	0x3c40f135	0.011776258
25	0x3aaf26da	0.0013363019
26	0x3ac41d82	0.0014962407
27	0x3a82dc94	0.000998395
28	0x39b5e711	0.00034695168
29	0x3c24df2f	0.010062977
30	0x3a1d45a8	0.00059994543
31	0x3bf19135	0.0073720464

res1.conv1.weight f4 [32, 32, 5]
0	0xbd938909	-0.07203872
1	0xbe0812a4	-0.13288361
2	0xbd5c6a2c	-0.05381219
3	0xbcce1e94	-0.025161065
4	0xbd09a347	-0.03360298
5	0xbe1ab2a9	-0.15107216
6	0xbd1a2b8f	-0.037639197
7	0xbd99aba4	-0.07503441
8	0x3c784668	0.015153505
9	0x3dd8a535	0.10578386
10	0xbdae3421	-0.085060365
11	0xbda4f7ef	-0.08055102
12	0xbdafc5c6	-0.08582644
13	0xbda98b24	-0.08278492
14	0xbd278905	-0.040902156
15	0xbcd13ece	-0.025542643
16	0x3d85f344	0.0654054
17	0x3d2bf063	0.041977298
18	0x3c684d42	0.014178576
19	0xbd54762b	-0.051870506
20	0xbe11af0a	-0.14226928
21	0xbd95981e	-0.07304405
22	0xbba97a66	-0.0051720617
23	0xbd97f208	-0.07419211
24	0x3ca1baeb	0.01974245
25	0xbe0362ca	-0.12830654
26	0xbdd311f6	-0.1030616
27	0xbe001ad5	-0.12510236
28	0xbdcd6148	-0.100283206
29	0xbd8afb22	-0.06786181
30	0xbdd744ea	-0.10511191
31	0x3c222501	0.009896518
32	0x3cd2da3e	0.025738832
33	0xbc0cbfee	-0.0085906815
34	0x3d124414	0.035709456
35	0xbe08b7ab	-0.13351314
36	0xbdfa8ec9	-0.12234265
37	0xbd32d312	-0.043658324
38	0x3dc3a34a	0.09552629
39	0x3cf3280b	0.02968218
40	0xba304bf3	-0.00067251845
41	0x3c98a8b3	0.01863513
42	0xbc66aceb	-0.014079313
43	0xbd2f3278	-0.04277274
44	0xbdbf5928	-0.09343177
45	0xbb775cc6	-0.0037744506
46	0xbd015dd6	-0.03158363
47	0xbd07b814	-0.033134535
48	0xbe076946	-0.13223752
49	0xbce48cb6	-0.027899127
50	0xbc069ca3	-0.008216056
51	0x3d215d92	0.039395876
52	0xbc912bbc	-0.01772105
53	0xbd970b1c	-0.07375166
54	0xbdc8c659	-0.09803457
55	0xbd70708f	-0.058701094
56	0xbe22a1c3	-0.1588202
57	0xbdbb47a3	-0.09144523
58	0xbb5e4a74	-0.003391889
59	0xb8fcc5d4	-0.00012053145
60	0x3c2e1002	0.010623934
61	0x3d80a483	0.06281378
62	0xbcd84828	-0.026401594
63	0xbca61b36	-0.020276647
64	0xbdec8a7c	-0.11549851
65	0xbdc40e16	-0.09572999
66	0xbd704064	-0.058655158
67	0xbdaabbcb	-0.083366
68	0xbe02b1c6	-0.12763128
69	0xbe018073	-0.12646656
70	0xbd642594	-0.0556999
71	0xbd9411ac	-0.07229933
72	0xbd0dd828	-0.03462997
73	0x3bae1351	0.0053123613
74	0x3d4d856a	0.05017606
75	0xbd632ab3	-0.055460643
76	0xbd81e2da	-0.063420966
77	0xbba40a23	-0.005006091
78	0x3ddd8ca7	0.10817843
79	0xbbae48f8	-0.005318757
80	0x3cd70694	0.026248254
81	0x3d86e19c	0.06586
82	0xbcc2521c	-0.023720793
83	0xbd1e8aed	-0.03870671
84	0xbd24d5cd	-0.04024296
85	0xbb6b6beb	-0.0035922478
86	0xbc3f3ff8	-0.011672966
87	0xbcf16047	-0.029464854
88	0xbd1ee517	-0.038792696
89	0xbd006dbb	-0.031354647
90	0x3cb6e2e4	0.022324987
91	0xbe6c0549	-0.23048891
92	0xbe3e4bc6	-0.18583593
93	0xbe41624d	-0.18885155
94	0xbc75706e	-0.014980419
95	0x3d3868c6	0.045021795
96	0x3d8feff3	0.070281886
97	0x3d09cf34	0.03364487
98	0xbdb62ddc	-0.08895466
99	0xbd2e134b	-0.042498868
100	0xbda02850	-0.07820189
101	0xbc80016d	-0.01562568
102	0x3cbee390	0.02330187
103	0x3e2342e3	0.15943484
104	0x3d2b356b	0.04179899
105	0x3b975a32	0.0046189064
106	0x3c855963	0.016277974
107	0x3c6a3058	0.014293753
108	0xbd54584f	-0.05184203
109	0xbdcca4a6	-0.09992342
110	0xbc31e458	-0.010857664
111	0xbd5f9752	-0.05458767
112	0xbd647e63	-0.055784594
113	0x3c9c9b76	0.019117098
114	0x3de529ea	0.11189635
115	0xbd150e36	-0.036390506
116	0xbd1e88a0	-0.038704515
117	0x3d288bba	0.04114888
118	0x3c78c7c5	0.0151843475
119	0xbceea5a8	-0.029131725
120	0x3bf3f4c5	0.0074449503
121	0x3d3e5805	0.04647066
122	0x3d8efe75	0.069821276
123	0xbd4a94d4	-0.04945834
124	0x3d19428b	0.037416976
125	0xbe2e4591	-0.17018725
126	0xbd350e72	-0.04420323
127	0x3de92972	0.11384858
128	0x3e039091	0.12848116
129	0x3e6c2583	0.23061185
130	0xbe0bfe88	-0.13671315
131	0xbdeea4fc	-0.11652562
132	0xbd1df25c	-0.03856121
133	0xbdabd8eb	-0.08390983
134	0xbdc8f15f	-0.09811663
135	0xbd563479	-0.052296136
136	0x3d038d2d	0.032117058
137	0x3ce8b6a8	0.02840741
138	0xbd0e69a4	-0.034768716
139	0xbc9977a1	-0.018733801
140	0xbe2f289d	-0.17105336
141	0xbc0c7522	-0.0085728485
142	0x3c938aa8	0.018010452
143	0x3ca21ac1	0.019788148
144	0x3da1e707	0.07905393
145	0x3d2e8469	0.042606745
146	0x3d02cf4a	0.031935968
147	0x3d1a0c2c	0.037609264
148	0xbc30793d	-0.010771093
149	0xbdb9f15f	-0.09079241
150	0xbe367838	-0.17819297
151	0xbd5470e2	-0.051865466
152	0xbda7d1c1	-0.08194304
153	0xbd6aa8ab	-0.05728976
154	0xbd0ecc5e	-0.03486287
155	0xbc607e52	-0.013701992
156	0x3db31012	0.087432995
157	0x3d473b36	0.048640452
158	0x3d34f3b3	0.044177722
159	0xbd5d0e52	-0.053968735
160	0xbd9c2bb6	-0.07625525
161	0xba8325c8	-0.0010005767
162	0xbd1759a1	-0.03695071
163	0xbc8d6b16	-0.017262977
164	0x3d3620eb	0.044464987
165	0x3c64743c	0.013943728
166	0x3bcd062f	0.0062568407
167	0x3e012af2	0.12614039
168	0x3e4b9724	0.19881874
169	0x3e487539	0.19575967
170	0xbd57d5e9	-0.052694235
171	0xbdb29e35	-0.08721582
172	0xbc35d98c	-0.0110992305
173	0x3d770eb4	0.060316756
174	0x3dc213b1	0.09476412
175	0x3d5b78de	0.053582065
176	0x3d064387	0.032779243
177	0x3dc82ef0	0.097745776
178	0x3bfb3b66	0.007666993
179	0x3d9c0d0c	0.07619676
180	0x3d257f55	0.040404636
181	0x3d2ac469	0.041691218
182	0xbb8c2005	-0.004276278
183	0x3c43ef00	0.0119588375
184	0x3d7edb95	0.06222113
185	0x3d2a30e7	0.041550543
186	0x3c1854ad	0.009297532
187	0x3dceac48	0.10091454
188	0x3e0f0386	0.13966188
189	0x3d800b01	0.06252099
190	0xbc1f7721	-0.009732992
191	0x3dea41b2	0.11438312
192	0x3e10aaf5	0.14127715
193	0x3da7813c	0.081789464
194	0x3e285ae2	0.16440919
195	0x3baab49e	0.0052095195
196	0x3c7e20fe	0.015510796
197	0x3da4e316	0.08051126
198	0x3dea3885	0.114365615
199	0x3e236279	0.15955533
200	0xbd9e4c91	-0.07729448
201	0x3cf8d368	0.030374244
202	0x3d88a7ec	0.066726536
203	0xbc28b0e6	-0.010296082
204	0x3b853a2e	0.0040657734
205	0xbbc706cc	-0.0060738083
206	0x3dcb5a7b	0.09929367
207	0x3902f318	0.00012488326
208	0xbbdc4b4e	-0.006722844
209	0xbda0a512	-0.07843985
210	0xbdf3b26d	-0.118992664
211	0xbd4ee488	-0.050510913
212	0x3d7dd0b1	0.0619666
213	0x39bf56d4	0.0003649505
214	0xbc6b5b3b	-0.014365013
215	0xbc4e5df5	-0.012595643
216	0x3cc9c2e1	0.024629058
217	0xbcb108a7	-0.021610571
218	0xbd36bb19	-0.044612024
219	0x3d20ddca	0.039274015
220	0xbd7130fb	-0.058884602
221	0xbd6b8488	-0.05749944
222	0x3d0eff9b	0.034911733
223	0x3d57fecc	0.052733228
224	0x3d300bbc	0.04297994
225	0xbd3e8ade	-0.046519153
226	0xbd5b9bc7	-0.053615358
227	0x3d1c3a7f	0.038141724
228	0x3cd2effc	0.0257492
229	0x3cd9df99	0.026595877
230	0x3dd3956c	0.10331234
231	0x3d6cd63f	0.05782151
232	0x3dfe33ed	0.12412248
233	0x3e00946c	0.12556618
234	0x3d9eba7c	0.07750413
235	0x3dd4e291	0.103947766
236	0x3dbcf7d2	0.092269555
237	0x3daa72a3	0.083226465
238	0x3dd79152	0.105257645
239	0x3e08bb11	0.1335261
240	0x3da30ddd	0.079616286
241	0x3dd6d587	0.10489946
242	0x3d204fb2	0.039138503
243	0x3cb7b734	0.022426225
244	0x3c8d9885	0.017284641
245	0x3d7ad908	0.061242133
246	0x3dc3285a	0.09529181
247	0x3df52a3f	0.119709484
248	0x3dd77f8c	0.105223745
249	0x3d973833	0.07383766
250	0x3d9e8490	0.07740128
251	0x3d0e84b5	0.034794528
252	0xbd39c46a	-0.04535333
253	0xbd8f727e	-0.070042595
254	0xbd2ee467	-0.04269829
255	0x3ba1f728	0.0049427934

res1.conv1.bias f4 [32]
0	0xb90fb1f2	-0.00013703833
1	0xba258798	-0.00063144555
2	0xba20e631	-0.0006137817
3	0xb98da204	-0.00027014327
4	0x39a0c3e0	0.00030663516
5	0xb9d27a5c	-0.00040145486
6	0xb8039624	-3.1372663e-05
7	0xba07685c	-0.0005165392
8	0x3a3136a6	0.00067601574
9	0xb867d07b	-5.5268854e-05
10	0xba365726	-0.0006955735
11	0xb9d5daed	-0.00040789638
12	0x39c0443b	0.0003667193
13	0xba85a1af	-0.001019528
14	0xb8e1bbc4	-0.0001076381
15	0xb9935881	-0.00028103965
16	0x3a06117c	0.00051143
17	0x3ad214f0	0.0016027968
18	0x3a4ee392	0.0007892187
19	0xb9b0cc9a	-0.00033721776
20	0x399a4e46	0.00029431487
21	0xb958cfd2	-0.00020676784
22	0xbab12f9b	-0.0013518216
23	0x37409298	1.1478223e-05
24	0x39e77718	0.00044148485
25	0xb981df59	-0.00024771204
26	0xbb2334fe	-0.0024903412
27	0xb9affa69	-0.0003356517
28	0x3a04c121	0.0005064179
29	0xb8eea5f2	-0.00011379634
30	0x39dfe66a	0.00042705546
31	0xbb6228e9	-0.0034509248

res1.bn1.weight f4 [32]
0	0x3f827fe6	1.0195282
1	0x3f329a6f	0.69766897
2	0x3f6b883a	0.9200474
3	0x3f2ce7b1	0.67541033
4	0x3f57b6bc	0.84263206
5	0x3f8450ea	1.0337193
6	0x3f5a457d	0.8526228
7	0x3f242ab9	0.6412769
8	0x3f2a0bb8	0.6642413
9	0x3f58ba7f	0.8465957
10	0x3f7c1886	0.9847492
11	0x3f445a19	0.7669998
12	0x3f32621a	0.6968094
13	0x3f8a15a7	1.0787858
14	0x3f68a618	0.9087844
15	0x3f753fc2	0.9580041
16	0x3f63dd11	0.89009196
17	0x3f6ba168	0.9204316
18	0x3f8ba60f	1.0910052
19	0x3f28afbc	0.6589315
20	0x3f5ef533	0.87092894
21	0x3f90aad7	1.1302136
22	0x3f8b0316	1.0860317
23	0x3f84618d	1.034227
24	0x3f422b1a	0.7584702
25	0x3f40e5c0	0.7535057
26	0x3f8fb445	1.1226889
27	0x3f86d6cc	1.0534301
28	0x3f6baab6	0.9205736
29	0x3f7f5e7f	0.99753565
30	0x3f4db8b5	0.80359966
31	0x3f49bc40	0.7880287

res1.bn1.bias f4 [32]
0	0x3ad5e2e4	0.0016318229
1	0xbde55698	-0.11198157
2	0xbdca0c2b	-0.09865602
3	0xbe4ef441	-0.20210363
4	0xbd33cb04	-0.043894783
5	0x3c297c8c	0.010344636
6	0xbc9c0d43	-0.019049292
7	0xbe54133b	-0.20710461
8	0xbe340910	-0.17581582
9	0xbe08b447	-0.1335002
10	0xbd9ff557	-0.07810467
11	0xbe92cf5c	-0.28673828
12	0xbe592040	-0.21203709
13	0x3bb6a4f9	0.0055738655
14	0xbd694e3a	-0.05695937
15	0xbcee71d2	-0.029107008
16	0xbdcb0f0e	-0.09914981
17	0xbe17ea4f	-0.14835475
18	0xbdace8de	-0.084428534
19	0xbe114377	-0.14185892
20	0xbe0aed24	-0.13567024
21	0x3e6dbf93	0.23217611
22	0x3dd74ddb	0.105128966
23	0xbe3e8277	-0.18604456
24	0xbe883e55	-0.26610056
25	0xbe0cdda6	-0.13756427
26	0x3d583759	0.05278716
27	0xbdc40a02	-0.09572221
28	0xbd1936e0	-0.03740585
29	0x3d74dedd	0.05978285
30	0xbae23ee3	-0.0017261173
31	0xbe35e1e9	-0.17761959

res1.bn1.running_mean f4 [32]
0	0xbf9ef957	-1.2419842
1	0x3ffec835	1.9904848
2	0x3f2cb06f	0.67456716
3	0x3f70eb5a	0.9410912
4	0xbfe6dcf4	-1.803618
5	0xbed114e8	-0.40836263
6	0xbf42672a	-0.75938666
7	0xbf876d97	-1.0580319
8	0xbef18cff	-0.47177884
9	0x3ffad159	1.9595138
10	0xbf6f3f31	-0.934558
11	0x3f15ddcc	0.5854156
12	0x3f62701d	0.8845232
13	0xbf8e694a	-1.1125882
14	0x3e80f5a9	0.25187424
15	0xbf5132c7	-0.81718105
16	0x3f1724a4	0.59040284
17	0x3ebc3045	0.36755577
18	0x3d4aa5be	0.04947447
19	0xbf443f00	-0.7665863
20	0x3e1baac6	0.15201864
21	0xbf215bee	-0.630309
22	0xbf310023	-0.69140834
23	0x3f7e2fde	0.9929179
24	0x3f99d39c	1.2017703
25	0xbfec71ab	-1.8472189
26	0xbf1c0843	-0.60950106
27	0xbc43910c	-0.011936437
28	0xbecc9eb3	-0.39964828
29	0xbebab0cc	-0.3646301
30	0x3da29b5e	0.0793979
31	0x3e47d346	0.19514188

res1.bn1.running_var f4 [32]
0	0x409013ba	4.502408
1	0x3fe47825	1.7849165
2	0x3fe02436	1.7511051
3	0x3fa20183	1.2656711
4	0x3fef35cb	1.8688291
5	0x3fbea736	1.4894779
6	0x40081f77	2.1269205
7	0x3fed81bd	1.8555218
8	0x3faf5757	1.3698529
9	0x3fbcb22f	1.4741877
10	0x406bdf62	3.6855092
11	0x3f8bd7bb	1.0925211
12	0x40a4452c	5.133444
13	0x406e8acf	3.7272222
14	0x3f0377dd	0.5135477
15	0x40a63f5d	5.195235
16	0x3fe632ad	1.7984215
17	0x3fa3d1f0	1.2798443
18	0x3f03bb37	0.5145754
19	0x3fca1237	1.5786809
20	0x3fe620af	1.7978724
21	0x3fa6a982	1.302048
22	0x3ff2749e	1.8941839
23	0x3fe20197	1.7656735
24	0x3fd5e1e4	1.6709561
25	0x4000e3b2	2.0138974
26	0x40373b7a	2.8630052
27	0x3f30dadd	0.6908396
28	0x4011cd02	2.2781377
29	0x3fb1090d	1.3830887
30	0x4004749e	2.0696177
31	0x3fc8e05c	1.5693469

res1.conv2.weight f4 [32, 32, 5]
0	0xbdacf7c7	-0.08445697
1	0x3c66db56	0.01409038
2	0xbbc1cc62	-0.005914257
3	0xbdc87bf1	-0.09789265
4	0xbd7e0f27	-0.06202617
5	0x3d0b032d	0.033938576
6	0x3d9bd18d	0.07608328
7	0xbbfada6a	-0.0076554315
8	0xbd190a51	-0.037363354
9	0xbe36ea0a	-0.17862716
10	0xbdac26a7	-0.0840581
11	0x3c437f79	0.011932247
12	0x3da98f12	0.082792416
13	0x3bada636	0.005299355
14	0x3d69bcc2	0.05706478
15	0xbd1f95de	-0.038961284
16	0xbd829a5b	-0.06377097
17	0x3ba46d26	0.0050178943
18	0xbda13cf5	-0.07872955
19	0xbe1c175c	-0.15243286
20	0x3d5dd625	0.054159302
21	0x3c71f092	0.014766829
22	0x3d16f182	0.036851414
23	0xbd6d2ced	-0.057904173
24	0xbe17d6ad	-0.14827986
25	0xbe4b3157	-0.1984304
26	0xbd326ffa	-0.04356382
27	0xbd91a75f	-0.07112002
28	0x3dd0c0dc	0.10193035
29	0x3e3071b2	0.17230871
30	0xbdb22f59	-0.08700437
31	0xbaeefcbb	-0.0018233279
32	0xbcc5843d	-0.024110908
33	0x3c8fe8d1	0.01756707
34	0xbd34f58d	-0.044179488
35	0xbc7da707	-0.015481717
36	0x3d29bcff	0.041440006
37	0x3a9334e2	0.001123097
38	0xbdf18f36	-0.117948934
39	0xbe489177	-0.1958674
40	0xbcbeab24	-0.023274966
41	0x3d3c166e	0.045919828
42	0x3c993450	0.018701702
43	0xbd981b53	-0.07427087
44	0x3d2e01d0	0.042482197
45	0x3e0858a1	0.13315059
46	0x3cb8dcba	0.022566188
47	0x3d5f7bab	0.0545613
48	0xbda93958	-0.082628906
49	0xbd6f4cf9	-0.058423016
50	0x3da90c16	0.08254258
51	0xba433e67	-0.00074479583
52	0x3d3caf02	0.046065338
53	0xbdc51bf8	-0.09624475
54	0xbdccbc8a	-0.099968985
55	0x3da6b922	0.0814078
56	0x3d398f74	0.045302823
57	0xbdabaa1b	-0.083820544
58	0xbd983089	-0.07431132
59	0xbdd86857	-0.10566776
60	0xbd65ebdc	-0.056133136
61	0xbd73efd9	-0.05955491
62	0xbd9036b4	-0.07041684
63	0x3d209b2f	0.039210495
64	0xbba255e1	-0.004954085
65	0x3dc174d9	0.09446115
66	0x3bb5057b	0.005524335
67	0xbcd09277	-0.025460465
68	0xbda30a00	-0.07960892
69	0xbd88fcef	-0.06688868
70	0xbd00b05a	-0.031418182
71	0x3d104cf5	0.035229642
72	0xbd56c342	-0.052432306
73	0xbdd4d898	-0.103928745
74	0x3cf8c0fa	0.030365456
75	0x3ddef9db	0.108875
76	0xbd0da2ef	-0.034579214
77	0x3caff6a2	0.021479908
78	0xbe297675	-0.16549094
79	0xbe4d7a98	-0.20066297
80	0xbe184fc1	-0.14874174
81	0xbcc8cffc	-0.024513237
82	0xbd972cc9	-0.07381589
83	0x3cc2456c	0.023714744
84	0xbdd2e56a	-0.102976635
85	0x3d50e2e5	0.050997633
86	0xbc33eb4a	-0.01098139
87	0xbdda069f	-0.10645794
88	0xbda96c35	-0.08272592
89	0xbd106e56	-0.035261475
90	0xba3f45b4	-0.00072964584
91	0xbdbc572c	-0.09196314
92	0x3d59f444	0.053211465
93	0x3e1f6a73	0.15567951
94	0xbb93660b	-0.0044982485
95	0x3d273e06	0.040830635
96	0x3d125e2f	0.03573435
97	0xbcccc65c	-0.024996929
98	0x3cb02532	0.021502111
99	0x3da1e98d	0.079058744
100	0x3bff714e	0.0077954894
101	0xbde035f2	-0.10947789
102	0xbdfdbd7f	-0.12389659
103	0xbde7b00d	-0.11312876
104	0xbe3168ec	-0.17325181
105	0x3e9ad56e	0.3024096
106	0x3d2b2aad	0.041788746
107	0xbd8f7787	-0.0700522
108	0xbd6e688c	-0.058205172
109	0xbe0c211a	-0.13684502
110	0xbd357d03	-0.044308674
111	0xbc98030c	-0.01855614
112	0x3cf72399	0.030168341
113	0x3b1cb02b	0.0023908715
114	0x3cb683d9	0.022279667
115	0xbe0aaceb	-0.13542525
116	0xbd50a916	-0.050942503
117	0x3a57aea4	0.00082276226
118	0x3a128218	0.00055888435
119	0x3ddfa1c9	0.1091953
120	0xb9b36076	-0.0003421341
121	0x3c946eab	0.018119177
122	0xbca566f7	-0.020190699
123	0x3d5004ac	0.050785705
124	0x3e0ee63a	0.13955012
125	0x3d738cba	0.05946038
126	0x3cff4c7e	0.031164404
127	0xbb90a4b2	-0.0044141645
128	0xbe14996c	-0.14511651
129	0xbda84a4f	-0.08217298
130	0x3e88253c	0.26590908
131	0x3ce27f15	0.027648488
132	0xbd05bcba	-0.032650687
133	0xbd62762c	-0.05528848
134	0xbde9394c	-0.11387882
135	0x3cfcb0ea	0.030846078
136	0xbda57f06	-0.080808684
137	0x3d4bb231	0.049730483
138	0xbd81a361	-0.0632999
139	0xbe101d47	-0.14073668
140	0x3dbdd66b	0.092694126
141	0xbc746d29	-0.014918604
142	0x3dda3c70	0.10656059
143	0xbd2d162b	-0.04225747
144	0xbe0041f6	-0.12525162
145	0xbe2ca68b	-0.16860406
146	0xbdd3bd3d	-0.10338829
147	0xbe113bd2	-0.14182976
148	0xbec3aa0f	-0.38215682
149	0xbe8a8bc7	-0.27059767
150	0x3cc5e85c	0.02415865
151	0x3c1d5dc9	0.00960488
152	0x3cd076bb	0.02544724
153	0x3d069d9f	0.032865163
154	0x3d76a3c9	0.06021479
155	0x3cb4a5d9	0.022051739
156	0xbd251ab4	-0.04030867
157	0xbc031272	-0.008000003
158	0xbe021aa8	-0.12705481
159	0xbca04de9	-0.0195684
160	0xbc1740db	-0.009231771
161	0xbce0a539	-0.027422534
162	0x3d8c77bb	0.06858774
163	0x3d4e41c6	0.050355695
164	0x3da04edf	0.078275435
165	0x3d093672	0.03349919
166	0xbd682240	-0.05667329
167	0x3c0a6286	0.008446341
168	0xbd158e33	-0.036512565
169	0xbcefd55b	-0.02927654
170	0x3ddfe6b5	0.10932676
171	0x3b87939d	0.00413747
172	0xbbb76ca5	-0.0055976682
173	0x3d746bbd	0.05967306
174	0xbd7622ef	-0.06009191
175	0x3e1f3d82	0.15550807
176	0x3d09c14a	0.0336316
177	0xbd86ab03	-0.06575587
178	0xbc7df921	-0.0155012915
179	0xbbfa3df5	-0.0076367804
180	0xbbb87c65	-0.0056300634
181	0xbddd3a23	-0.10802104
182	0x3b81835e	0.003952428
183	0xbdc3b980	-0.09556866
184	0x3d5f1bc0	0.054469824
185	0xbdb2eba8	-0.08736354
186	0xbd000080	-0.031250477
187	0xbd5c625c	-0.05380474
188	0xbde41352	-0.111364976
189	0xbbc9d947	-0.0061599347
190	0xbd130bbb	-0.03589986
191	0x3c9504a5	0.018190691
192	0x3d7bdea4	0.061491624
193	0xbceafb72	-0.028684352
194	0xbc666d1a	-0.014064098
195	0xbbc457a5	-0.0059918934
196	0xbd81ef52	-0.06344475
197	0xbca7009b	-0.02038603
198	0x3c960654	0.018313564
199	0xbd6a7b28	-0.057246357
200	0x3a300da5	0.00067159004
201	0x3daaa4b3	0.08332195
202	0xbd307e2c	-0.043089077
203	0x3b4907ee	0.0030674892
204	0x3b663138	0.0035124552
205	0x3e16c2ed	0.14722796
206	0x3d9ae8d9	0.075639434
207	0x3d9090a0	0.07058835
208	0xbd5891fe	-0.052873604
209	0x3d021520	0.031758428
210	0x3d024cf5	0.031811673
211	0x3b853eda	0.0040663304
212	0x3c221488	0.00989259
213	0x3de03c42	0.10948993
214	0x3e451d3c	0.19249433
215	0xbdf61a03	-0.1201668
216	0xbd0f67a0	-0.035010934
217	0xbe084c4a	-0.13310352
218	0xbd24dbfe	-0.040248863
219	0xbc905613	-0.017619168
220	0x3d4070c4	0.04698254
221	0x3a82c26f	0.0009976159
222	0x3c83f077	0.016105874
223	0x3d66ff8f	0.056396063
224	0x3c478bf5	0.012179364
225	0xbd8b7773	-0.068098925
226	0xbdab1ac4	-0.083547145
227	0x3d63eb4f	0.05564433
228	0x3d3a83e4	0.045535937
229	0x3e2843ea	0.16432157
230	0x3d214ad8	0.039378017
231	0x3d46d22c	0.04854028
232	0xbc93ecfb	-0.018057337
233	0xbd1a383d	-0.03765129
234	0xbde5d1f7	-0.11221688
235	0xbd2fd237	-0.042925086
236	0x3bb7db5d	0.005610867
237	0x3da227ea	0.07917769
238	0x3e07594c	0.13217658
239	0x3e0c5bb3	0.13706855
240	0xbda6cfb4	-0.08145085
241	0xbd412cde	-0.04716193
242	0xbdd7fdbe	-0.10546444
243	0xbc23bf29	-0.009994307
244	0xbd2b154c	-0.041768357
245	0x3ead4532	0.33841854
246	0x3e4d1346	0.20026883
247	0x3e447ff6	0.19189438
248	0x3e032216	0.12805972
249	0x3df7f879	0.12107939
250	0xbd0dcf9d	-0.034621824
251	0xbd6f7d57	-0.058469143
252	0x3d2325a2	0.03983081
253	0x3beef653	0.0072925477
254	0xbc388d31	-0.011264131
255	0xbd8c5641	-0.06852389

res1.conv2.bias f4 [32]
0	0xb8f636f6	-0.000117404314
1	0xb9d582a4	-0.0004072386
2	0x39f9584e	0.00047558773
3	0x38527558	5.0177186e-05
4	0xb9a8bc80	-0.000321839
5	0xb98135c5	-0.0002464486
6	0xba2f9568	-0.00066979835
7	0x348cd600	2.6232738e-07
8	0x389ae792	7.3864256e-05
9	0x38f74f5a	0.00011792658
10	0xba48b4bc	-0.0007656326
11	0xba568142	-0.0008182713
12	0x3a2c7297	0.00065783545
13	0xbab1ae34	-0.0013555945
14	0x3a1e88c4	0.00060476013
15	0xb7eed920	-2.8472918e-05
16	0x3906e0e8	0.0001286302
17	0xb94894b3	-0.00019128881
18	0x3aa8a077	0.0012865205
19	0x3a22d804	0.00062119984
20	0xba3b7b6b	-0.00071518746
21	0x3a13d040	0.00056386366
22	0x39f60ee8	0.00046931882
23	0xb91fe40d	-0.00015248377
24	0x3a45c4dc	0.0007544288
25	0x389d1412	7.490082e-05
26	0xb775c300	-1.464854e-05
27	0xba236aa6	-0.00062338484
28	0x380d57f6	3.369894e-05
29	0xb9a59edb	-0.0003158961
30	0xb9593498	-0.00020714325
31	0x378ceae0	1.6798673e-05

res1.bn2.weight f4 [32]
0	0x3f7d782c	0.9901149
1	0x3f734840	0.9503212
2	0x3f4f8351	0.8105975
3	0x3f5dc760	0.8663235
4	0x3f7872c4	0.9705012
5	0x3f57f23e	0.8435401
6	0x3f439942	0.7640573
7	0x3f66d91a	0.9017502
8	0x3f6b7ec9	0.91990334
9	0x3f6f010e	0.93360984
10	0x3f7f70fa	0.99781764
11	0x3f80b50e	1.0055254
12	0x3f24093c	0.6407659
13	0x3f81b28c	1.0132613
14	0x3f68b6c2	0.90903866
15	0x3f5d2302	0.8638154
16	0x3f4994d0	0.78742695
17	0x3f677924	0.9041922
18	0x3f731392	0.94951737
19	0x3f4fd7d3	0.81188697
20	0x3f6cc96c	0.92494845
21	0x3f7a95e9	0.97884995
22	0x3f8f58c9	1.119897
23	0x3f62071c	0.882921
24	0x3f74844a	0.9551436
25	0x3f52e801	0.8238526
26	0x3f64e299	0.8940826
27	0x3f5f43e8	0.8721299
28	0x3f800d0c	1.0003982
29	0x3f3be3b7	0.7339434
30	0x3f4b43c7	0.79400295
31	0x3f3c3833	0.73523253

res1.bn2.bias f4 [32]
0	0xbc7d7bcf	-0.015471413
1	0xbdfe290b	-0.12410172
2	0xbe8b2838	-0.27179122
3	0x3e05f3cd	0.13081284
4	0xbb9b555d	-0.0047404007
5	0xbd98cc12	-0.07460798
6	0xbca5bfc9	-0.020233052
7	0xbea28bfc	-0.31747425
8	0xbde5b6ff	-0.11216544
9	0xbd079d56	-0.03310903
10	0x3d899b32	0.06719054
11	0xbd72b534	-0.05925484
12	0xbe68ac2a	-0.22721925
13	0xbe609840	-0.21933079
14	0x3db242b0	0.08704126
15	0xbd1ebc6a	-0.038753904
16	0x3c224176	0.009903302
17	0x3cc4ca22	0.024022166
18	0xbd66116f	-0.05616897
19	0xbdc5a638	-0.09650844
20	0xbcc84b50	-0.024449974
21	0x3e2ee8e5	0.1708103
22	0x3d320cd7	0.043469276
23	0xbdc75e88	-0.09734827
24	0xbd84c97e	-0.06483744
25	0x3a696a7f	0.0008904114
26	0xbcbf5a17	-0.023358388
27	0x3c06a8f0	0.008218989
28	0xbd0cd02a	-0.03437821
29	0xbe1b123e	-0.15143678
30	0x3e163607	0.14669047
31	0xbdbd1d47	-0.092341

res1.bn2.running_mean f4 [32]
0	0xbf4620bc	-0.773937
1	0x3f01c513	0.50691336
2	0x3ef4dcd2	0.47824723
3	0xbf8edd24	-1.1161237
4	0xbe61b885	-0.22043045
5	0xbf07feea	-0.53123343
6	0xbf9c2437	-1.2198552
7	0x3f58f150	0.84743214
8	0xbf3ffcdd	-0.74995214
9	0xbeb7e1c0	-0.3591442
10	0x3cb2184f	0.021740107
11	0xbebc2a60	-0.3675108
12	0x3d90c2d8	0.070684135
13	0x3d7f307f	0.06230211
14	0xbf0523f1	-0.5200797
15	0x3ed1e844	0.40997517
16	0xbf9dc421	-1.2325479
17	0x3f3bdc6c	0.7338321
18	0xbe28ae1c	-0.16472667
19	0xbf8287ca	-1.019769
20	0xbf557066	-0.8337463
21	0xbf938c0e	-1.1527116
22	0xbf2fcde1	-0.6867352
23	0x3f848c72	1.035536
24	0xbeb490ce	-0.35266727
25	0x3f670723	0.90245265
26	0xbf4c8e20	-0.79904366
27	0xbe82fba4	-0.25582612
28	0xbed702ab	-0.41994223
29	0x3f034225	0.51272804
30	0xbec30c42	-0.3809529
31	0xbe785e75	-0.24254782

res1.bn2.running_var f4 [32]
0	0x3f9ccb3e	1.2249525
1	0x3fc730ff	1.5561827
2	0x3f8d7f9a	1.1054566
3	0x3f720aad	0.9454754
4	0x3ef8853e	0.48539156
5	0x402b8520	2.6800003
6	0x3f6a8afa	0.9161831
7	0x3f7da12b	0.9907405
8	0x3f5eab20	0.86979866
9	0x3f025416	0.50909555
10	0x3f23d946	0.6400341
11	0x3f189950	0.59608936
12	0x3f559d87	0.8344349
13	0x3fae0e19	1.3598052
14	0x3f9fda63	1.2488521
15	0x3f480dae	0.78145874
16	0x3fdc7ae8	1.7225008
17	0x3f439e03	0.7641298
18	0x3f7c2b9e	0.98504055
19	0x3f5712f5	0.840133
20	0x3f6547e3	0.89562815
21	0x3fa73d40	1.3065567
22	0x3f4cae23	0.7995321
23	0x3f3d7f56	0.74022424
24	0x3f269f95	0.6508725
25	0x3f3c223c	0.7348974
26	0x3fb74257	1.431712
27	0x3f8f50cc	1.1196532
28	0x3ffd3838	1.9782782
29	0x4024f29e	2.5773082
30	0x405fa1d2	3.4942517
31	0x3f26279d	0.64904195

conv_expand.weight f4 [64, 32, 3]
0	0x3d35c6fd	0.044379223
1	0x3e009e6a	0.1256043
2	0xbd9e1111	-0.07718099
3	0x3cdbbfbc	0.026824825
4	0x3d70bf90	0.05877644
5	0xbdb7f437	-0.08982127
6	0x3ba33228	0.0049803443
7	0xbd9bed1c	-0.076135844
8	0xbd61c858	-0.055122703
9	0xbe2e998c	-0.17050761
10	0xbacac7f1	-0.0015470964
11	0xbcae7bf8	-0.021299347
12	0x3e130ebf	0.14361094
13	0x3d7816cc	0.060568616
14	0x3dae7a47	0.08519416
15	0xbd2cd8b3	-0.042198848
16	0x3d68c85a	0.056831695
17	0x3da0d753	0.0785357
18	0xbe4f3681	-0.20235635
19	0xbcc6aed5	-0.024253288
20	0x3b38f197	0.002822017
21	0x3de87852	0.11351074
22	0xbc9d011c	-0.019165568
23	0xbddeeb9a	-0.10884781
24	0xbe03b7f0	-0.12863135
25	0xbda21607	-0.07914358
26	0x3de1b36c	0.1102055
27	0xbe2593bb	-0.16169636
28	0xbdaa7bcc	-0.08324394
29	0x3e2270d7	0.15863357
30	0x3cd686ec	0.026187383
31	0xbc9e0549	-0.01928963
32	0x3d6d3c94	0.0579191
33	0xbd9e9798	-0.07743758
34	0xbd068dc7	-0.032850053
35	0xbc1d02a0	-0.009583145
36	0x3d54f09e	0.051987283
37	0xbd953b25	-0.072866715
38	0x3e15310a	0.14569488
39	0xbe17dc51	-0.14830138
40	0x3d04221b	0.032259088
41	0x3e280ff6	0.16412339
42	0x3d5ec73b	0.05438922
43	0xbd7f2b47	-0.062297132
44	0xbe7efad9	-0.24900378
45	0x3d954a6c	0.072895855
46	0x3e1afae5	0.15134771
47	0x3d28bbd7	0.041194763
48	0x3e34e7ee	0.17666599
49	0x3d23c711	0.039984766
50	0xbd9adf36	-0.07562105
51	0xbdc3fd57	-0.09569805
52	0xbe1489a8	-0.14505637
53	0xbe316ad0	-0.17325902
54	0xbcc437a9	-0.023952322
55	0x3ca10525	0.019655773
56	0xbc48aa15	-0.012247582
57	0xbc5fdc1f	-0.013663321
58	0xbca66cd1	-0.02031556
59	0xbd505003	-0.050857555
60	0x3df4ea37	0.119587354
61	0x3deb2273	0.1148118
62	0x3ca17809	0.019710558
63	0xbe0d13a5	-0.13777025
64	0xbe2a09fb	-0.1660537
65	0x3d6698f0	0.056298196
66	0xbe01ab25	-0.12662943
67	0xbd003a6d	-0.03130572
68	0xbd0df371	-0.034655992
69	0x3e128989	0.14310278
70	0x3d85913e	0.065218434
71	0xbe692cee	-0.22771046
72	0xbd0b0522	-0.033940442
73	0x3da97881	0.082749374
74	0xbd886a7f	-0.066609375
75	0x3d3d8cd5	0.046276886
76	0x3dd8ca40	0.10585451
77	0x3dd4ac35	0.103844084
78	0x3b64b726	0.0034899204
79	0xbc4479e1	-0.011991949
80	0x3c8c3211	0.017113717
81	0x3d671e23	0.056425225
82	0xbe0011af	-0.12506746
83	0xbc9d0b87	-0.019170536
84	0x3c1749ef	0.009233936
85	0x3cb43d65	0.022001931
86	0x3db08053	0.08618226
87	0xbd177583	-0.036977302
88	0xbe19e378	-0.15028179
89	0xbe2f65b4	-0.1712864
90	0xbe33010d	-0.1748087
91	0x3d0db379	0.034594987
92	0xbd525552	-0.0513509
93	0xbb907830	-0.0044088587
94	0x3d0618f1	0.03273863
95	0x3de73036	0.112884924
96	0x3da97ba9	0.082755394
97	0x3dec737d	0.11545465
98	0x3dffa3ae	0.12482391
99	0xbd60827a	-0.054811932
100	0xbdb90950	-0.09034979
101	0xbe49b467	-0.19697724
102	0xbdd2fb41	-0.10301829
103	0xbbd73d79	-0.0065686074
104	0xbd95afc5	-0.07308916
105	0xbdcbe526	-0.09955816
106	0xbd28ee2a	-0.041242756
107	0x3e1170ef	0.14203237
108	0x3d850eb7	0.06496947
109	0xbd264804	-0.040596023
110	0x3d0d9a43	0.034570944
111	0x3e142c2d	0.14469977
112	0x3db5a310	0.08868992
113	0xbd062a39	-0.03275511
114	0x3cf64462	0.030061904
115	0x3d658922	0.056038983
116	0x3dbadda5	0.091243066
117	0xbc745aef	-0.014914258
118	0xbd937f35	-0.07201997
119	0xbe898915	-0.26862398
120	0x3bb533eb	0.0055298707
121	0xbe288576	-0.16457161
122	0x3d28e439	0.041233275
123	0x3e1d14c9	0.1533996
124	0xbcc864b7	-0.024462087
125	0x3dd15566	0.102213666
126	0x3d702403	0.058628093
127	0x3c6a2baf	0.014292642
128	0xbd9f6071	-0.077820666
129	0xbdefa1d5	-0.11700789
130	0x3ce9103e	0.028450128
131	0x3d681a6e	0.05666583
132	0xbc8a8538	-0.016909227
133	0xbd0ddcb8	-0.034634322
134	0x3d1d8f42	0.0384667
135	0x3e352a83	0.17691998
136	0x3bead26d	0.007166198
137	0xbcd11340	-0.025521874
138	0xbdc5d410	-0.09659588
139	0x3c09c1b0	0.008407995
140	0x3d744df7	0.059644666
141	0xbe3adc80	-0.18248177
142	0xbddef873	-0.10887232
143	0xbce416fe	-0.027842995
144	0xbda3d3bf	-0.07999372
145	0xbd07f8e6	-0.033196352
146	0x3ce58072	0.028015349
147	0xbca04f82	-0.019569162
148	0xbdaabccf	-0.08336794
149	0x3ccf2e8a	0.025290746
150	0x3e34c8e7	0.17654763
151	0x3de9a0c6	0.11407618
152	0xbd7c8567	-0.06165066
153	0xbe156966	-0.14590988
154	0xbe149a4b	-0.14511983
155	0xbd7d4f94	-0.06184347
156	0xbdd96ac4	-0.10616067
157	0x3c44d5e3	0.012013885
158	0xbc376195	-0.011192699
159	0xbdddf470	-0.108376384
160	0xbd3fd0f2	-0.046830125
161	0xbcead009	-0.028663652
162	0x3c32800b	0.010894786
163	0x3be0caf8	0.0068601333
164	0x3c8bd46a	0.01706906
165	0x3d3371dc	0.043809757
166	0x3d88e668	0.066845715
167	0x3ca70162	0.020386402
168	0x3dfc6b6e	0.12325178
169	0xbc9a38a8	-0.018825844
170	0xbd001565	-0.031270403
171	0xbdfe5606	-0.124187514
172	0xbdec5359	-0.11539335
173	0xbe5fb03a	-0.21844569
174	0x3daf5d07	0.085626654
175	0xbd98815a	-0.07446547
176	0xbcd2c802	-0.025730137
177	0xbd5f992e	-0.054589443
178	0x3cabcbee	0.020971265
179	0x3db7c176	0.089724466
180	0xbc7e6182	-0.015526177
181	0xbd99c64a	-0.07508524
182	0x3b67c321	0.0035364109
183	0x3bb0ee8b	0.0053995303
184	0xbd122d74	-0.03568788
185	0xbe1f985d	-0.15585466
186	0xbdc80740	-0.09767008
187	0xbc879b5e	-0.016553577
188	0x3cc8ce7a	0.024512518
189	0x3db22386	0.08698182
190	0xbd56c0a7	-0.05242982
191	0x3cc6eac2	0.024281863
192	0xbdc2ce4e	-0.09512006
193	0xbd82cd48	-0.063868105
194	0xbdbe1132	-0.092806235
195	0x3c20a14c	0.009804081
196	0xbd78e63a	-0.060766436
197	0xbcea7f8d	-0.028625274
198	0xbd8c02cb	-0.0683647
199	0xbe1db7c3	-0.15402131
200	0xbe1a6c5d	-0.150804
201	0xbdc83559	-0.097758
202	0xbe176779	-0.14785565
203	0xbe088b57	-0.13334404
204	0x3da51370	0.08060348
205	0x3df9f4ad	0.12204871
206	0x3d973737	0.07383578
207	0xbdb651c1	-0.08902312
208	0xbcd91062	-0.02649707
209	0xbd8fe013	-0.07025161
210	0x3cd10d4f	0.025519041
211	0xbb49b268	-0.0030776504
212	0xbded58ca	-0.11589201
213	0x3bbca1b2	0.0057565803
214	0xbb76666d	-0.0037597672
215	0xbda1a6d5	-0.07893149
216	0xbd711afd	-0.05886363
217	0x3d171ec9	0.036894593
218	0xbe381b4d	-0.17979164
219	0xbc3cdfc0	-0.0115279555
220	0xbcee756d	-0.029108727
221	0xbd44058d	-0.047856856
222	0xbd64080a	-0.05567173
223	0xbdc1c5d6	-0.09461562
224	0xbe1c0a27	-0.15238248
225	0x3d1edc5d	0.038784374
226	0xbc9f26fb	-0.019427767
227	0xbd2cc58b	-0.04218058
228	0x3d68f8b3	0.056877803
229	0x3db04db6	0.08608572
230	0xbd4dfc5f	-0.050289508
231	0xbdffd0b7	-0.12490981
232	0xbdd9e0a3	-0.10638549
233	0xbd8f76a2	-0.07005049
234	0xbd99e01b	-0.07513448
235	0xbd26610c	-0.040619895
236	0x3e3f6b3e	0.18693253
237	0x3e216b67	0.15763627
238	0x3de9701b	0.113983355
239	0x3deba924	0.115068704
240	0x3e0d3276	0.1378878
241	0x3e101f2a	0.14074388
242	0x3d576b97	0.05259284
243	0xbe1b5bae	-0.15171692
244	0xbe089ab1	-0.1334026
245	0xbd155dfb	-0.03646658
246	0xbcba8422	-0.022768084
247	0xbd003613	-0.03130157
248	0xbd656a41	-0.056009535
249	0xbcc1159b	-0.023569873
250	0xbdbac32a	-0.09119256
251	0xb91c51e4	-0.00014907826
252	0x3e0a7363	0.13520579
253	0x3deebc38	0.11656994
254	0x3d89f39e	0.067359194
255	0xbe3506c9	-0.1767837

conv_expand.bias f4 [64]
0	0x390d6780	0.00013485365
1	0xb9547786	-0.00020262421
2	0xb93a0d52	-0.00017743304
3	0x394d1c08	0.00019560766
4	0x39239d4e	0.00015603492
5	0x395d2659	0.00021090488
6	0xb8cc9e17	-9.7569246e-05
7	0x398df85c	0.00027078658
8	0x37dafb02	2.610451e-05
9	0xb8a9f2e0	-8.103787e-05
10	0xb93c6838	-0.00017967902
11	0xb8708749	-5.7346453e-05
12	0xb8176ecf	-3.6104404e-05
13	0x391ff68d	0.00015255269
14	0x3944d8f7	0.00018772842
15	0x39868cad	0.00025663283
16	0xb8a53a06	-7.878621e-05
17	0x398b558b	0.0002657588
18	0x39747850	0.00023314473
19	0x36979500	4.5174966e-06
20	0x39405d88	0.0001834539
21	0x38816185	6.169364e-05
22	0x39927d82	0.000279408
23	0x39a486f8	0.00031381077
24	0xb9f18576	-0.00046066538
25	0x3920f3cd	0.00015349612
26	0xb93bfbe7	-0.0001792755
27	0xb95b2fae	-0.0002090323
28	0x37ea2a78	2.791475e-05
29	0x392c3ed6	0.00016426606
30	0xb80db530	-3.3785764e-05
31	0x39e01ae8	0.00042744656
32	0xb8aa5837	-8.122663e-05
33	0xb9059e3e	-0.00012742818
34	0xb9603b58	-0.00021384412
35	0xb9b790c4	-0.0003501234
36	0x39367574	0.00017400627
37	0x393b8aec	0.00017885462
38	0x38869e67	6.419123e-05
39	0x39166bac	0.00014345226
40	0xb69f8cec	-4.7549747e-06
41	0xba0e84a0	-0.0005436633
42	0xb9bd8bef	-0.00036153148
43	0x39347a42	0.00017211682
44	0x393be366	0.00017918422
45	0xb8975070	-7.215224e-05
46	0xb9020eea	-0.00012403322
47	0xb991b119	-0.00027788503
48	0xb9547cea	-0.0002026443
49	0xb91c73fa	-0.00014920524
50	0x395372e5	0.0002016533
51	0x390f724c	0.00013680122
52	0x38875fdb	6.455156e-05
53	0xb8a093be	-7.656914e-05
54	0x3987da49	0.00025911842
55	0x39b3c15c	0.00034285604
56	0x396643ef	0.00021959817
57	0x39692b5f	0.00022236769
58	0x394314ab	0.00018604349
59	0xb9958730	-0.00028520217
60	0x3a577ce5	0.000822021
61	0xb9845c9c	-0.00025246
62	0xb9ee3503	-0.00045434394
63	0x397f1293	0.00024325615

bn_expand.weight f4 [64]
0	0x3f58404b	0.84473103
1	0x3f64e738	0.8941531
2	0x3f5fea63	0.8746702
3	0x3f814f4f	1.0102328
4	0x3f77cd5e	0.9679774
5	0x3f80f6ae	1.0075281
6	0x3f57a1bf	0.8423118
7	0x3f51c983	0.8194811
8	0x3f64ae4c	0.89328456
9	0x3f55577c	0.83336616
10	0x3f3eb375	0.7449258
11	0x3f3330e6	0.6999649
12	0x3f4deefc	0.80442786
13	0x3f4d6b15	0.8024152
14	0x3f397ccc	0.7245605
15	0x3f3f9356	0.7483419
16	0x3f4ca00b	0.79931706
17	0x3f49acbe	0.7877921
18	0x3f83d864	1.0300412
19	0x3f489d11	0.78364664
20	0x3f6ac8fa	0.91712916
21	0x3f49ec81	0.788765
22	0x3f6eaf08	0.93235826
23	0x3f18713a	0.5954777
24	0x3f5596a2	0.8343297
25	0x3f60a4ed	0.87751657
26	0x3f545320	0.8293934
27	0x3f564c70	0.83710384
28	0x3f6e6ed3	0.93137854
29	0x3f4b839d	0.794977
30	0x3f62c463	0.8858091
31	0x3f8309c5	1.0237356
32	0x3f45acf5	0.77217036
33	0x3f46d16b	0.77663296
34	0x3f73e54d	0.9527176
35	0x3f82fec7	1.0234002
36	0x3f6cb9b4	0.9247086
37	0x3f5ed318	0.87040854
38	0x3f44c3cd	0.7686127
39	0x3f64a5a5	0.89315253
40	0x3f635b29	0.88810974
41	0x3f51b70d	0.8191994
42	0x3f7ad4b5	0.97980815
43	0x3f611c34	0.8793366
44	0x3f82b08e	1.021013
45	0x3f71a73e	0.94395816
46	0x3f3b010d	0.7304848
47	0x3f82a0b8	1.0205297
48	0x3f590a50	0.8478136
49	0x3f5a63c3	0.85308474
50	0x3f6bb288	0.9206929
51	0x3f5f8b7b	0.87322205
52	0x3f3483e6	0.7051376
53	0x3f43f669	0.7654787
54	0x3f1a3d5f	0.60249895
55	0x3f495ad3	0.7865421
56	0x3f6ee09a	0.93311465
57	0x3f57aa90	0.8424463
58	0x3f594253	0.8486683
59	0x3f85270f	1.0402545
60	0x3f69e371	0.91362673
61	0x3f55054b	0.832112
62	0x3f660ab1	0.89860064
63	0x3f6a4c77	0.91522926

bn_expand.bias f4 [64]
0	0xbdff5dbf	-0.124690525
1	0xbdedf1d6	-0.11618392
2	0xbd52e346	-0.051486276
3	0xbd28c19a	-0.041200258
4	0xbd78b1cb	-0.06071643
5	0xbe957dfe	-0.29197687
6	0xbe883bce	-0.26608127
7	0xbe23c765	-0.15994032
8	0x3dc83523	0.0977576
9	0xbcd0cafd	-0.025487417
10	0xbe9cd8ae	-0.30634063
11	0xbe7fdcf8	-0.24986637
12	0xbacdb7fa	-0.0015695088
13	0xbeb2a5e5	-0.34892192
14	0xbc993329	-0.018701153
15	0xbdedb5d7	-0.11606949
16	0xbea06789	-0.3132899
17	0xbea16046	-0.31518763
18	0xbe2ee900	-0.1708107
19	0xbece7350	-0.4032235
20	0xbe80abc7	-0.25131056
21	0xbe6bb9bf	-0.23020075
22	0xbe7f4085	-0.24926956
23	0xbe7c1674	-0.2461794
24	0xbe8120b1	-0.25220254
25	0xbc3b8b33	-0.011446762
26	0xbe9d9226	-0.30775565
27	0xbeb05a49	-0.34443882
28	0xbe30d7cc	-0.1726982
29	0xbe88df88	-0.2673304
30	0x3bb683ae	0.0055698967
31	0xbe415543	-0.18880181
32	0xbe81d1f8	-0.25355506
33	0xbd2415de	-0.040059917
34	0xbe299fa6	-0.16564807
35	0x3d5d3dc3	0.05401398
36	0xbe41e0eb	-0.18933456
37	0xbe42013b	-0.18945782
38	0xbea8bb17	-0.32955238
39	0xbdcd6f10	-0.10030949
40	0xbe90b68c	-0.28264272
41	0x3ce87fe5	0.028381297
42	0x3dbd4049	0.09240777
43	0xbe3af640	-0.18258
44	0xbe07b6a6	-0.13253269
45	0xbda7bf49	-0.081907816
46	0xbea12d71	-0.31479982
47	0x3c990c4f	0.018682627
48	0xbe8dfcee	-0.27732033
49	0xbe83b278	-0.25722098
50	0x3da52a22	0.08064677
51	0xbe149e0a	-0.14513412
52	0xbe808d3b	-0.2510775
53	0xbcb99af7	-0.0226569
54	0xbe667ffe	-0.22509763
55	0xbe93b90c	-0.28852117
56	0xbdfc1686	-0.123089835
57	0xbe531381	-0.20612909
58	0xbef0bec1	-0.47020534
59	0x3d0c3a29	0.034235153
60	0xbe052e02	-0.13005832
61	0xbe5ce45e	-0.2157149
62	0xbde96c4d	-0.1139761
63	0xbe1e663f	-0.15468691

bn_expand.running_mean f4 [64]
0	0xbedd9000	-0.43273926
1	0xbf401d5a	-0.75044787
2	0xbf8ade6e	-1.084913
3	0x3f7a37e0	0.9774151
4	0x3ed27c0e	0.4111027
5	0xbf062920	-0.524065
6	0xbf3e198e	-0.74257743
7	0xbff1b3b4	-1.8882966
8	0xbf8b302c	-1.0874076
9	0xbf866b71	-1.0501539
10	0xbd9e4962	-0.077288404
11	0xbf5a1ac0	-0.8519707
12	0xbf9326b0	-1.1496181
13	0xbebebbbf	-0.37252614
14	0xbf95764b	-1.1676725
15	0xbf8a39e9	-1.0798923
16	0x3f871851	1.0554296
17	0x3f41676a	0.7554842
18	0x3e5e3035	0.21698077
19	0x3ffa0dcb	1.9535459
20	0xbf160438	-0.5860019
21	0xbfd3c9a4	-1.6545911
22	0xbefaf908	-0.4901812
23	0xbf9684ae	-1.1759241
24	0xbf291dbf	-0.66061014
25	0xbfd03f2e	-1.6269281
26	0x3eb2aa55	0.34895578
27	0xbd8d56db	-0.06901332
28	0xbc88bd29	-0.016691761
29	0xc0088731	-2.1332514
30	0xbf61caf2	-0.88200295
31	0xbfda9fbe	-1.708
32	0xbe162ea9	-0.14666237
33	0xbfbfd375	-1.4986407
34	0x3eb7cf9a	0.35900575
35	0xbf6acee6	-0.9172195
36	0xbd861fee	-0.06549059
37	0xbf208a5d	-0.62711126
38	0x3e671fed	0.22570772
39	0xbf18d3d9	-0.59698254
40	0x3f56920b	0.83816594
41	0xbfe00985	-1.7502905
42	0xbee5a993	-0.44855937
43	0xbea1f570	-0.31632566
44	0x3f5b8a80	0.8575821
45	0xbf8b78e9	-1.0896274
46	0xbfcdb769	-1.6071597
47	0xbef56e90	-0.47935915
48	0xc0024032	-2.0351682
49	0xbfca760c	-1.5817275
50	0xbf8d56ba	-1.1042092
51	0x3f073359	0.52812725
52	0x3e75c560	0.24001074
53	0xbfcf7781	-1.6208345
54	0xbf64da50	-0.8939562
55	0x3f50008a	0.8125082
56	0xbe23a68c	-0.15981501
57	0x3ec82aec	0.39095247
58	0x3fd1fac1	1.6404649
59	0x3e5c908c	0.21539515
60	0xbf1f177a	-0.621452
61	0xbf6584f9	-0.89656025
62	0x3e8b50df	0.27210137
63	0xbf7c4163	-0.9853727

bn_expand.running_var f4 [64]
0	0x3f32d019	0.6984878
1	0x3f9e0e97	1.2348202
2	0x3f94946d	1.1607796
3	0x3f44762c	0.76742816
4	0x3f06ea26	0.5270103
5	0x3ef06977	0.46955463
6	0x3f5aebe2	0.8551618
7	0x3f770fb3	0.9650833
8	0x3fae70d1	1.3628179
9	0x3fef44e0	1.8692894
10	0x3f97cff9	1.1860343
11	0x3fd4d031	1.6626035
12	0x3fe333e6	1.7750213
13	0x3f353efd	0.7079924
14	0x3fe814ae	1.8131311
15	0x3f22a458	0.6353202
16	0x3eeebbcd	0.46627656
17	0x3f2e2890	0.68030643
18	0x3ebc454e	0.36771625
19	0x3f9449fd	1.158508
20	0x3f61cb36	0.882007
21	0x3f9f1c08	1.243043
22	0x3f22ddd4	0.6361973
23	0x3f7176de	0.94322
24	0x3f0d8dc0	0.5529442
25	0x3f95d4ff	1.1705626
26	0x3f67f800	0.9061279
27	0x3f81dd75	1.0145708
28	0x3ee35b56	0.4440562
29	0x3fb8f4ed	1.4449745
30	0x3f3de43a	0.7417637
31	0x3f8cd225	1.1001631
32	0x3f090ac8	0.53532076
33	0x3f7263f7	0.94683784
34	0x3f2b1ccd	0.6684082
35	0x3f9bef36	1.2182376
36	0x3f8c9db7	1.0985631
37	0x3f4412c0	0.7659111
38	0x3ef0210c	0.46900213
39	0x3f16422c	0.5869472
40	0x3f8b2401	1.0870363
41	0x3fa3ce46	1.2797325
42	0x3f517917	0.81825393
43	0x3f735cb4	0.9506333
44	0x3f1ef248	0.6208844
45	0x3f4a9c61	0.79144865
46	0x3f571cff	0.8402862
47	0x3f39cbf6	0.72576845
48	0x3fd4149d	1.6568791
49	0x3fb97ff7	1.4492177
50	0x3f78bccd	0.9716309
51	0x3f4f0ca0	0.8087864
52	0x3f3829d3	0.7193882
53	0x3fc89fa9	1.5673724
54	0x3f5a9e32	0.85397637
55	0x3f2a88da	0.6661507
56	0x3f5a5d70	0.85298824
57	0x3f0b97b7	0.54528373
58	0x3f195de0	0.59908867
59	0x3f211937	0.629291
60	0x3f741424	0.9534323
61	0x3f2eaf1b	0.6823594
62	0x3f9be3fd	1.2178952
63	0x3f9017ca	1.125726
